{"format": "graph-model", "generatedBy": "2.4.0", "convertedBy": "TensorFlow.js Converter v3.3.0", "signature": {"inputs": {"input_tensor:0": {"name": "input_tensor:0", "dtype": "DT_UINT8", "tensorShape": {"dim": [{"size": "1"}, {"size": "-1"}, {"size": "-1"}, {"size": "3"}]}}}, "outputs": {"Identity_2:0": {"name": "Identity_2:0", "dtype": "DT_FLOAT", "tensorShape": {"dim": [{"size": "1"}, {"size": "100"}]}}, "Identity_3:0": {"name": "Identity_3:0", "dtype": "DT_FLOAT", "tensorShape": {"dim": [{"size": "1"}]}}, "Identity:0": {"name": "Identity:0", "dtype": "DT_FLOAT", "tensorShape": {"dim": [{"size": "1"}, {"size": "100"}, {"size": "4"}]}}, "Identity_1:0": {"name": "Identity_1:0", "dtype": "DT_FLOAT", "tensorShape": {"dim": [{"size": "1"}, {"size": "100"}]}}}}, "modelTopology": {"node": [{"name": "ConstantFolding/StatefulPartitionedCall/ClipToWindow/unstack-folded-2", "op": "Const", "attr": {"dtype": {"type": "DT_FLOAT"}, "value": {"tensor": {"dtype": "DT_FLOAT", "tensorShape": {}}}}}, {"name": "ConstantFolding/StatefulPartitionedCall/ClipToWindow/unstack-folded-0", "op": "Const", "attr": {"value": {"tensor": {"dtype": "DT_FLOAT", "tensorShape": {}}}, "dtype": {"type": "DT_FLOAT"}}}, {"name": "StatefulPartitionedCall/ClipToWindow/split/split_dim", "op": "Const", "attr": {"dtype": {"type": "DT_INT32"}, "value": {"tensor": {"dtype": "DT_INT32", "tensorShape": {}}}}}, {"name": "StatefulPartitionedCall/ToNormalizedCoordinates/Scale/split/split_dim", "op": "Const", "attr": {"dtype": {"type": "DT_INT32"}, "value": {"tensor": {"dtype": "DT_INT32", "tensorShape": {}}}}}, {"name": "StatefulPartitionedCall/ToNormalizedCoordinates/Scale/concat/axis", "op": "Const", "attr": {"dtype": {"type": "DT_INT32"}, "value": {"tensor": {"dtype": "DT_INT32", "tensorShape": {}}}}}, {"name": "ConstantFolding/StatefulPartitionedCall/ClipToWindow/unstack-folded-3", "op": "Const", "attr": {"value": {"tensor": {"dtype": "DT_FLOAT", "tensorShape": {}}}, "dtype": {"type": "DT_FLOAT"}}}, {"name": "ConstantFolding/StatefulPartitionedCall/ClipToWindow/unstack-folded-1", "op": "Const", "attr": {"value": {"tensor": {"dtype": "DT_FLOAT", "tensorShape": {}}}, "dtype": {"type": "DT_FLOAT"}}}, {"name": "StatefulPartitionedCall/ClipToWindow/concat/axis", "op": "Const", "attr": {"value": {"tensor": {"dtype": "DT_INT32", "tensorShape": {}}}, "dtype": {"type": "DT_INT32"}}}, {"name": "StatefulPartitionedCall/mod_1/y", "op": "Const", "attr": {"dtype": {"type": "DT_INT32"}, "value": {"tensor": {"dtype": "DT_INT32", "tensorShape": {}}}}}, {"name": "StatefulPartitionedCall/add_7/y", "op": "Const", "attr": {"value": {"tensor": {"dtype": "DT_FLOAT", "tensorShape": {}}}, "dtype": {"type": "DT_FLOAT"}}}, {"name": "StatefulPartitionedCall/Greater/y", "op": "Const", "attr": {"dtype": {"type": "DT_FLOAT"}, "value": {"tensor": {"dtype": "DT_FLOAT", "tensorShape": {}}}}}, {"name": "StatefulPartitionedCall/Sum/reduction_indices", "op": "Const", "attr": {"dtype": {"type": "DT_INT32"}, "value": {"tensor": {"dtype": "DT_INT32", "tensorShape": {}}}}}, {"name": "StatefulPartitionedCall/Assert_3/Condition", "op": "Const", "attr": {"dtype": {"type": "DT_BOOL"}, "value": {"tensor": {"dtype": "DT_BOOL", "tensorShape": {}}}}}, {"name": "StatefulPartitionedCall/Assert_2/Condition", "op": "Const", "attr": {"value": {"tensor": {"dtype": "DT_BOOL", "tensorShape": {}}}, "dtype": {"type": "DT_BOOL"}}}, {"name": "StatefulPartitionedCall/Assert_1/Condition", "op": "Const", "attr": {"dtype": {"type": "DT_BOOL"}, "value": {"tensor": {"dtype": "DT_BOOL", "tensorShape": {}}}}}, {"name": "StatefulPartitionedCall/Assert/AssertGuard/pivot_t/_332", "op": "Const", "attr": {"dtype": {"type": "DT_BOOL"}, "value": {"tensor": {"dtype": "DT_BOOL", "tensorShape": {}}}}}, {"name": "StatefulPartitionedCall/Assert/Condition", "op": "Const", "attr": {"value": {"tensor": {"dtype": "DT_BOOL", "tensorShape": {}}}, "dtype": {"type": "DT_BOOL"}}}, {"name": "StatefulPartitionedCall/Scale/Cast", "op": "Const", "attr": {"dtype": {"type": "DT_FLOAT"}, "value": {"tensor": {"dtype": "DT_FLOAT", "tensorShape": {}}}}}, {"name": "StatefulPartitionedCall/Scale/Cast_1", "op": "Const", "attr": {"dtype": {"type": "DT_FLOAT"}, "value": {"tensor": {"dtype": "DT_FLOAT", "tensorShape": {}}}}}, {"name": "StatefulPartitionedCall/Scale/split/split_dim", "op": "Const", "attr": {"value": {"tensor": {"dtype": "DT_INT32", "tensorShape": {}}}, "dtype": {"type": "DT_INT32"}}}, {"name": "ConstantFolding/StatefulPartitionedCall/truediv_2_recip", "op": "Const", "attr": {"dtype": {"type": "DT_FLOAT"}, "value": {"tensor": {"dtype": "DT_FLOAT", "tensorShape": {}}}}}, {"name": "ConstantFolding/StatefulPartitionedCall/truediv_3_recip", "op": "Const", "attr": {"dtype": {"type": "DT_FLOAT"}, "value": {"tensor": {"dtype": "DT_FLOAT", "tensorShape": {}}}}}, {"name": "ConstantFolding/StatefulPartitionedCall/truediv_4_recip", "op": "Const", "attr": {"dtype": {"type": "DT_FLOAT"}, "value": {"tensor": {"dtype": "DT_FLOAT", "tensorShape": {}}}}}, {"name": "unknown_309", "op": "Const", "attr": {"value": {"tensor": {"dtype": "DT_FLOAT", "tensorShape": {"dim": [{"size": "3"}, {"size": "3"}, {"size": "64"}, {"size": "256"}]}}}, "dtype": {"type": "DT_FLOAT"}}}, {"name": "unknown_310", "op": "Const", "attr": {"value": {"tensor": {"dtype": "DT_FLOAT", "tensorShape": {"dim": [{"size": "256"}]}}}, "dtype": {"type": "DT_FLOAT"}}}, {"name": "unknown_311", "op": "Const", "attr": {"dtype": {"type": "DT_FLOAT"}, "value": {"tensor": {"dtype": "DT_FLOAT", "tensorShape": {"dim": [{"size": "1"}, {"size": "1"}, {"size": "256"}, {"size": "2"}]}}}}}, {"name": "unknown_312", "op": "Const", "attr": {"dtype": {"type": "DT_FLOAT"}, "value": {"tensor": {"dtype": "DT_FLOAT", "tensorShape": {"dim": [{"size": "2"}]}}}}}, {"name": "StatefulPartitionedCall/Reshape_4/shape", "op": "Const", "attr": {"value": {"tensor": {"dtype": "DT_INT32", "tensorShape": {"dim": [{"size": "3"}]}}}, "dtype": {"type": "DT_INT32"}}}, {"name": "StatefulPartitionedCall/GatherV2_1/axis", "op": "Const", "attr": {"dtype": {"type": "DT_INT32"}, "value": {"tensor": {"dtype": "DT_INT32", "tensorShape": {}}}}}, {"name": "unknown_305", "op": "Const", "attr": {"dtype": {"type": "DT_FLOAT"}, "value": {"tensor": {"dtype": "DT_FLOAT", "tensorShape": {"dim": [{"size": "3"}, {"size": "3"}, {"size": "64"}, {"size": "256"}]}}}}}, {"name": "unknown_306", "op": "Const", "attr": {"dtype": {"type": "DT_FLOAT"}, "value": {"tensor": {"dtype": "DT_FLOAT", "tensorShape": {"dim": [{"size": "256"}]}}}}}, {"name": "unknown_307", "op": "Const", "attr": {"value": {"tensor": {"dtype": "DT_FLOAT", "tensorShape": {"dim": [{"size": "1"}, {"size": "1"}, {"size": "256"}, {"size": "2"}]}}}, "dtype": {"type": "DT_FLOAT"}}}, {"name": "unknown_308", "op": "Const", "attr": {"dtype": {"type": "DT_FLOAT"}, "value": {"tensor": {"dtype": "DT_FLOAT", "tensorShape": {"dim": [{"size": "2"}]}}}}}, {"name": "StatefulPartitionedCall/Reshape_3/shape", "op": "Const", "attr": {"dtype": {"type": "DT_INT32"}, "value": {"tensor": {"dtype": "DT_INT32", "tensorShape": {"dim": [{"size": "3"}]}}}}}, {"name": "StatefulPartitionedCall/floordiv/y", "op": "Const", "attr": {"dtype": {"type": "DT_INT32"}, "value": {"tensor": {"dtype": "DT_INT32", "tensorShape": {}}}}}, {"name": "StatefulPartitionedCall/floordiv_1/y", "op": "Const", "attr": {"dtype": {"type": "DT_INT32"}, "value": {"tensor": {"dtype": "DT_INT32", "tensorShape": {}}}}}, {"name": "StatefulPartitionedCall/mul_1/y", "op": "Const", "attr": {"value": {"tensor": {"dtype": "DT_INT32", "tensorShape": {}}}, "dtype": {"type": "DT_INT32"}}}, {"name": "StatefulPartitionedCall/center_net_resnet_feature_extractor/functional_3/conv2d_transpose_2/stack", "op": "Const", "attr": {"dtype": {"type": "DT_INT32"}, "value": {"tensor": {"dtype": "DT_INT32", "tensorShape": {"dim": [{"size": "4"}]}}}}}, {"name": "unknown_295", "op": "Const", "attr": {"dtype": {"type": "DT_FLOAT"}, "value": {"tensor": {"dtype": "DT_FLOAT", "tensorShape": {"dim": [{"size": "3"}, {"size": "3"}, {"size": "64"}, {"size": "64"}]}}}}}, {"name": "StatefulPartitionedCall/center_net_resnet_feature_extractor/functional_3/conv2d_transpose_1/stack", "op": "Const", "attr": {"value": {"tensor": {"dtype": "DT_INT32", "tensorShape": {"dim": [{"size": "4"}]}}}, "dtype": {"type": "DT_INT32"}}}, {"name": "unknown_283", "op": "Const", "attr": {"dtype": {"type": "DT_FLOAT"}, "value": {"tensor": {"dtype": "DT_FLOAT", "tensorShape": {"dim": [{"size": "3"}, {"size": "3"}, {"size": "128"}, {"size": "128"}]}}}}}, {"name": "StatefulPartitionedCall/center_net_resnet_feature_extractor/functional_3/conv2d_transpose/stack", "op": "Const", "attr": {"value": {"tensor": {"dtype": "DT_INT32", "tensorShape": {"dim": [{"size": "4"}]}}}, "dtype": {"type": "DT_INT32"}}}, {"name": "unknown_271", "op": "Const", "attr": {"dtype": {"type": "DT_FLOAT"}, "value": {"tensor": {"dtype": "DT_FLOAT", "tensorShape": {"dim": [{"size": "3"}, {"size": "3"}, {"size": "256"}, {"size": "256"}]}}}}}, {"name": "unknown_229", "op": "Const", "attr": {"value": {"tensor": {"dtype": "DT_FLOAT", "tensorShape": {"dim": [{"size": "1"}, {"size": "1"}, {"size": "1024"}, {"size": "2048"}]}}}, "dtype": {"type": "DT_FLOAT"}}}, {"name": "unknown_230", "op": "Const", "attr": {"dtype": {"type": "DT_FLOAT"}, "value": {"tensor": {"dtype": "DT_FLOAT", "tensorShape": {"dim": [{"size": "2048"}]}}}}}, {"name": "unknown_131", "op": "Const", "attr": {"value": {"tensor": {"dtype": "DT_FLOAT", "tensorShape": {"dim": [{"size": "1"}, {"size": "1"}, {"size": "512"}, {"size": "1024"}]}}}, "dtype": {"type": "DT_FLOAT"}}}, {"name": "unknown_132", "op": "Const", "attr": {"dtype": {"type": "DT_FLOAT"}, "value": {"tensor": {"dtype": "DT_FLOAT", "tensorShape": {"dim": [{"size": "1024"}]}}}}}, {"name": "unknown_65", "op": "Const", "attr": {"dtype": {"type": "DT_FLOAT"}, "value": {"tensor": {"dtype": "DT_FLOAT", "tensorShape": {"dim": [{"size": "1"}, {"size": "1"}, {"size": "256"}, {"size": "512"}]}}}}}, {"name": "unknown_66", "op": "Const", "attr": {"value": {"tensor": {"dtype": "DT_FLOAT", "tensorShape": {"dim": [{"size": "512"}]}}}, "dtype": {"type": "DT_FLOAT"}}}, {"name": "unknown_15", "op": "Const", "attr": {"value": {"tensor": {"dtype": "DT_FLOAT", "tensorShape": {"dim": [{"size": "1"}, {"size": "1"}, {"size": "64"}, {"size": "256"}]}}}, "dtype": {"type": "DT_FLOAT"}}}, {"name": "unknown_16", "op": "Const", "attr": {"value": {"tensor": {"dtype": "DT_FLOAT", "tensorShape": {"dim": [{"size": "256"}]}}}, "dtype": {"type": "DT_FLOAT"}}}, {"name": "StatefulPartitionedCall/ResizeToRange/Pad/paddings/0/0", "op": "Const", "attr": {"dtype": {"type": "DT_INT32"}, "value": {"tensor": {"dtype": "DT_INT32", "tensorShape": {}}}}}, {"name": "StatefulPartitionedCall/ResizeToRange/sub/x", "op": "Const", "attr": {"dtype": {"type": "DT_INT32"}, "value": {"tensor": {"dtype": "DT_INT32", "tensorShape": {}}}}}, {"name": "StatefulPartitionedCall/ResizeToRange/strided_slice_2/stack", "op": "Const", "attr": {"value": {"tensor": {"dtype": "DT_INT32", "tensorShape": {"dim": [{"size": "1"}]}}}, "dtype": {"type": "DT_INT32"}}}, {"name": "StatefulPartitionedCall/ResizeToRange/strided_slice_2/stack_1", "op": "Const", "attr": {"value": {"tensor": {"dtype": "DT_INT32", "tensorShape": {"dim": [{"size": "1"}]}}}, "dtype": {"type": "DT_INT32"}}}, {"name": "StatefulPartitionedCall/ResizeToRange/strided_slice_2/stack_2", "op": "Const", "attr": {"dtype": {"type": "DT_INT32"}, "value": {"tensor": {"dtype": "DT_INT32", "tensorShape": {"dim": [{"size": "1"}]}}}}}, {"name": "StatefulPartitionedCall/ResizeToRange/Pad/paddings/1/0", "op": "Const", "attr": {"value": {"tensor": {"dtype": "DT_INT32", "tensorShape": {}}}, "dtype": {"type": "DT_INT32"}}}, {"name": "StatefulPartitionedCall/ResizeToRange/sub_1/x", "op": "Const", "attr": {"value": {"tensor": {"dtype": "DT_INT32", "tensorShape": {}}}, "dtype": {"type": "DT_INT32"}}}, {"name": "StatefulPartitionedCall/ResizeToRange/strided_slice_3/stack", "op": "Const", "attr": {"dtype": {"type": "DT_INT32"}, "value": {"tensor": {"dtype": "DT_INT32", "tensorShape": {"dim": [{"size": "1"}]}}}}}, {"name": "StatefulPartitionedCall/ResizeToRange/strided_slice_3/stack_1", "op": "Const", "attr": {"value": {"tensor": {"dtype": "DT_INT32", "tensorShape": {"dim": [{"size": "1"}]}}}, "dtype": {"type": "DT_INT32"}}}, {"name": "StatefulPartitionedCall/ResizeToRange/strided_slice_3/stack_2", "op": "Const", "attr": {"value": {"tensor": {"dtype": "DT_INT32", "tensorShape": {"dim": [{"size": "1"}]}}}, "dtype": {"type": "DT_INT32"}}}, {"name": "StatefulPartitionedCall/ResizeToRange/Pad_1/paddings/0/0", "op": "Const", "attr": {"value": {"tensor": {"dtype": "DT_INT32", "tensorShape": {}}}, "dtype": {"type": "DT_INT32"}}}, {"name": "StatefulPartitionedCall/ResizeToRange/sub_2/x", "op": "Const", "attr": {"dtype": {"type": "DT_INT32"}, "value": {"tensor": {"dtype": "DT_INT32", "tensorShape": {}}}}}, {"name": "StatefulPartitionedCall/ResizeToRange/strided_slice_4/stack", "op": "Const", "attr": {"dtype": {"type": "DT_INT32"}, "value": {"tensor": {"dtype": "DT_INT32", "tensorShape": {"dim": [{"size": "1"}]}}}}}, {"name": "StatefulPartitionedCall/ResizeToRange/strided_slice_4/stack_1", "op": "Const", "attr": {"dtype": {"type": "DT_INT32"}, "value": {"tensor": {"dtype": "DT_INT32", "tensorShape": {"dim": [{"size": "1"}]}}}}}, {"name": "StatefulPartitionedCall/ResizeToRange/strided_slice_4/stack_2", "op": "Const", "attr": {"dtype": {"type": "DT_INT32"}, "value": {"tensor": {"dtype": "DT_INT32", "tensorShape": {"dim": [{"size": "1"}]}}}}}, {"name": "StatefulPartitionedCall/ResizeToRange/Pad_1/paddings/1/0", "op": "Const", "attr": {"dtype": {"type": "DT_INT32"}, "value": {"tensor": {"dtype": "DT_INT32", "tensorShape": {}}}}}, {"name": "StatefulPartitionedCall/ResizeToRange/sub_3/x", "op": "Const", "attr": {"value": {"tensor": {"dtype": "DT_INT32", "tensorShape": {}}}, "dtype": {"type": "DT_INT32"}}}, {"name": "StatefulPartitionedCall/ResizeToRange/strided_slice_5/stack", "op": "Const", "attr": {"dtype": {"type": "DT_INT32"}, "value": {"tensor": {"dtype": "DT_INT32", "tensorShape": {"dim": [{"size": "1"}]}}}}}, {"name": "StatefulPartitionedCall/ResizeToRange/strided_slice_5/stack_1", "op": "Const", "attr": {"dtype": {"type": "DT_INT32"}, "value": {"tensor": {"dtype": "DT_INT32", "tensorShape": {"dim": [{"size": "1"}]}}}}}, {"name": "StatefulPartitionedCall/ResizeToRange/strided_slice_5/stack_2", "op": "Const", "attr": {"value": {"tensor": {"dtype": "DT_INT32", "tensorShape": {"dim": [{"size": "1"}]}}}, "dtype": {"type": "DT_INT32"}}}, {"name": "StatefulPartitionedCall/ResizeToRange/Pad_2/paddings/0/0", "op": "Const", "attr": {"value": {"tensor": {"dtype": "DT_INT32", "tensorShape": {}}}, "dtype": {"type": "DT_INT32"}}}, {"name": "StatefulPartitionedCall/ResizeToRange/sub_4/x", "op": "Const", "attr": {"dtype": {"type": "DT_INT32"}, "value": {"tensor": {"dtype": "DT_INT32", "tensorShape": {}}}}}, {"name": "StatefulPartitionedCall/ResizeToRange/strided_slice_6/stack", "op": "Const", "attr": {"value": {"tensor": {"dtype": "DT_INT32", "tensorShape": {"dim": [{"size": "1"}]}}}, "dtype": {"type": "DT_INT32"}}}, {"name": "StatefulPartitionedCall/ResizeToRange/strided_slice_6/stack_1", "op": "Const", "attr": {"value": {"tensor": {"dtype": "DT_INT32", "tensorShape": {"dim": [{"size": "1"}]}}}, "dtype": {"type": "DT_INT32"}}}, {"name": "StatefulPartitionedCall/ResizeToRange/strided_slice_6/stack_2", "op": "Const", "attr": {"value": {"tensor": {"dtype": "DT_INT32", "tensorShape": {"dim": [{"size": "1"}]}}}, "dtype": {"type": "DT_INT32"}}}, {"name": "StatefulPartitionedCall/ResizeToRange/Pad_2/paddings/1/0", "op": "Const", "attr": {"dtype": {"type": "DT_INT32"}, "value": {"tensor": {"dtype": "DT_INT32", "tensorShape": {}}}}}, {"name": "StatefulPartitionedCall/ResizeToRange/sub_5/x", "op": "Const", "attr": {"dtype": {"type": "DT_INT32"}, "value": {"tensor": {"dtype": "DT_INT32", "tensorShape": {}}}}}, {"name": "StatefulPartitionedCall/ResizeToRange/strided_slice/stack", "op": "Const", "attr": {"dtype": {"type": "DT_INT32"}, "value": {"tensor": {"dtype": "DT_INT32", "tensorShape": {"dim": [{"size": "1"}]}}}}}, {"name": "StatefulPartitionedCall/ResizeToRange/strided_slice/stack_1", "op": "Const", "attr": {"dtype": {"type": "DT_INT32"}, "value": {"tensor": {"dtype": "DT_INT32", "tensorShape": {"dim": [{"size": "1"}]}}}}}, {"name": "StatefulPartitionedCall/ResizeToRange/strided_slice/stack_2", "op": "Const", "attr": {"value": {"tensor": {"dtype": "DT_INT32", "tensorShape": {"dim": [{"size": "1"}]}}}, "dtype": {"type": "DT_INT32"}}}, {"name": "StatefulPartitionedCall/ResizeToRange/strided_slice_1/stack", "op": "Const", "attr": {"dtype": {"type": "DT_INT32"}, "value": {"tensor": {"dtype": "DT_INT32", "tensorShape": {"dim": [{"size": "1"}]}}}}}, {"name": "StatefulPartitionedCall/ResizeToRange/strided_slice_1/stack_1", "op": "Const", "attr": {"dtype": {"type": "DT_INT32"}, "value": {"tensor": {"dtype": "DT_INT32", "tensorShape": {"dim": [{"size": "1"}]}}}}}, {"name": "StatefulPartitionedCall/ResizeToRange/strided_slice_1/stack_2", "op": "Const", "attr": {"dtype": {"type": "DT_INT32"}, "value": {"tensor": {"dtype": "DT_INT32", "tensorShape": {"dim": [{"size": "1"}]}}}}}, {"name": "StatefulPartitionedCall/ResizeToRange/strided_slice_7/stack", "op": "Const", "attr": {"dtype": {"type": "DT_INT32"}, "value": {"tensor": {"dtype": "DT_INT32", "tensorShape": {"dim": [{"size": "1"}]}}}}}, {"name": "StatefulPartitionedCall/ResizeToRange/strided_slice_7/stack_1", "op": "Const", "attr": {"value": {"tensor": {"dtype": "DT_INT32", "tensorShape": {"dim": [{"size": "1"}]}}}, "dtype": {"type": "DT_INT32"}}}, {"name": "StatefulPartitionedCall/ResizeToRange/strided_slice_7/stack_2", "op": "Const", "attr": {"value": {"tensor": {"dtype": "DT_INT32", "tensorShape": {"dim": [{"size": "1"}]}}}, "dtype": {"type": "DT_INT32"}}}, {"name": "ConstantFolding/StatefulPartitionedCall/truediv_1_recip", "op": "Const", "attr": {"dtype": {"type": "DT_FLOAT"}, "value": {"tensor": {"dtype": "DT_FLOAT", "tensorShape": {}}}}}, {"name": "StatefulPartitionedCall/sub_1/y", "op": "Const", "attr": {"value": {"tensor": {"dtype": "DT_FLOAT", "tensorShape": {}}}, "dtype": {"type": "DT_FLOAT"}}}, {"name": "StatefulPartitionedCall/center_net_resnet_feature_extractor/functional_3/functional_1/conv1_pad/Pad/paddings", "op": "Const", "attr": {"dtype": {"type": "DT_INT32"}, "value": {"tensor": {"dtype": "DT_INT32", "tensorShape": {"dim": [{"size": "4"}, {"size": "2"}]}}}}}, {"name": "unknown", "op": "Const", "attr": {"value": {"tensor": {"dtype": "DT_FLOAT", "tensorShape": {"dim": [{"size": "7"}, {"size": "7"}, {"size": "3"}, {"size": "64"}]}}}, "dtype": {"type": "DT_FLOAT"}}}, {"name": "unknown_0", "op": "Const", "attr": {"dtype": {"type": "DT_FLOAT"}, "value": {"tensor": {"dtype": "DT_FLOAT", "tensorShape": {"dim": [{"size": "64"}]}}}}}, {"name": "StatefulPartitionedCall/center_net_resnet_feature_extractor/functional_3/functional_1/pool1_pad/Pad/paddings", "op": "Const", "attr": {"dtype": {"type": "DT_INT32"}, "value": {"tensor": {"dtype": "DT_INT32", "tensorShape": {"dim": [{"size": "4"}, {"size": "2"}]}}}}}, {"name": "StatefulPartitionedCall/center_net_resnet_feature_extractor/functional_3/functional_1/conv2_block1_2_pad/Pad/paddings", "op": "Const", "attr": {"dtype": {"type": "DT_INT32"}, "value": {"tensor": {"dtype": "DT_INT32", "tensorShape": {"dim": [{"size": "4"}, {"size": "2"}]}}}}}, {"name": "unknown_17", "op": "Const", "attr": {"value": {"tensor": {"dtype": "DT_FLOAT", "tensorShape": {"dim": [{"size": "1"}, {"size": "1"}, {"size": "64"}, {"size": "256"}]}}}, "dtype": {"type": "DT_FLOAT"}}}, {"name": "unknown_18", "op": "Const", "attr": {"dtype": {"type": "DT_FLOAT"}, "value": {"tensor": {"dtype": "DT_FLOAT", "tensorShape": {"dim": [{"size": "256"}]}}}}}, {"name": "StatefulPartitionedCall/center_net_resnet_feature_extractor/functional_3/functional_1/conv2_block2_2_pad/Pad/paddings", "op": "Const", "attr": {"dtype": {"type": "DT_INT32"}, "value": {"tensor": {"dtype": "DT_INT32", "tensorShape": {"dim": [{"size": "4"}, {"size": "2"}]}}}}}, {"name": "unknown_33", "op": "Const", "attr": {"value": {"tensor": {"dtype": "DT_FLOAT", "tensorShape": {"dim": [{"size": "1"}, {"size": "1"}, {"size": "64"}, {"size": "256"}]}}}, "dtype": {"type": "DT_FLOAT"}}}, {"name": "unknown_34", "op": "Const", "attr": {"dtype": {"type": "DT_FLOAT"}, "value": {"tensor": {"dtype": "DT_FLOAT", "tensorShape": {"dim": [{"size": "256"}]}}}}}, {"name": "StatefulPartitionedCall/center_net_resnet_feature_extractor/functional_3/functional_1/conv2_block3_2_pad/Pad/paddings", "op": "Const", "attr": {"dtype": {"type": "DT_INT32"}, "value": {"tensor": {"dtype": "DT_INT32", "tensorShape": {"dim": [{"size": "4"}, {"size": "2"}]}}}}}, {"name": "unknown_49", "op": "Const", "attr": {"dtype": {"type": "DT_FLOAT"}, "value": {"tensor": {"dtype": "DT_FLOAT", "tensorShape": {"dim": [{"size": "1"}, {"size": "1"}, {"size": "64"}, {"size": "256"}]}}}}}, {"name": "unknown_50", "op": "Const", "attr": {"value": {"tensor": {"dtype": "DT_FLOAT", "tensorShape": {"dim": [{"size": "256"}]}}}, "dtype": {"type": "DT_FLOAT"}}}, {"name": "StatefulPartitionedCall/center_net_resnet_feature_extractor/functional_3/functional_1/conv3_block1_2_pad/Pad/paddings", "op": "Const", "attr": {"dtype": {"type": "DT_INT32"}, "value": {"tensor": {"dtype": "DT_INT32", "tensorShape": {"dim": [{"size": "4"}, {"size": "2"}]}}}}}, {"name": "unknown_67", "op": "Const", "attr": {"dtype": {"type": "DT_FLOAT"}, "value": {"tensor": {"dtype": "DT_FLOAT", "tensorShape": {"dim": [{"size": "1"}, {"size": "1"}, {"size": "128"}, {"size": "512"}]}}}}}, {"name": "unknown_68", "op": "Const", "attr": {"dtype": {"type": "DT_FLOAT"}, "value": {"tensor": {"dtype": "DT_FLOAT", "tensorShape": {"dim": [{"size": "512"}]}}}}}, {"name": "StatefulPartitionedCall/center_net_resnet_feature_extractor/functional_3/functional_1/conv3_block2_2_pad/Pad/paddings", "op": "Const", "attr": {"dtype": {"type": "DT_INT32"}, "value": {"tensor": {"dtype": "DT_INT32", "tensorShape": {"dim": [{"size": "4"}, {"size": "2"}]}}}}}, {"name": "unknown_83", "op": "Const", "attr": {"value": {"tensor": {"dtype": "DT_FLOAT", "tensorShape": {"dim": [{"size": "1"}, {"size": "1"}, {"size": "128"}, {"size": "512"}]}}}, "dtype": {"type": "DT_FLOAT"}}}, {"name": "unknown_84", "op": "Const", "attr": {"value": {"tensor": {"dtype": "DT_FLOAT", "tensorShape": {"dim": [{"size": "512"}]}}}, "dtype": {"type": "DT_FLOAT"}}}, {"name": "StatefulPartitionedCall/center_net_resnet_feature_extractor/functional_3/functional_1/conv3_block3_2_pad/Pad/paddings", "op": "Const", "attr": {"value": {"tensor": {"dtype": "DT_INT32", "tensorShape": {"dim": [{"size": "4"}, {"size": "2"}]}}}, "dtype": {"type": "DT_INT32"}}}, {"name": "unknown_99", "op": "Const", "attr": {"dtype": {"type": "DT_FLOAT"}, "value": {"tensor": {"dtype": "DT_FLOAT", "tensorShape": {"dim": [{"size": "1"}, {"size": "1"}, {"size": "128"}, {"size": "512"}]}}}}}, {"name": "unknown_100", "op": "Const", "attr": {"dtype": {"type": "DT_FLOAT"}, "value": {"tensor": {"dtype": "DT_FLOAT", "tensorShape": {"dim": [{"size": "512"}]}}}}}, {"name": "StatefulPartitionedCall/center_net_resnet_feature_extractor/functional_3/functional_1/conv3_block4_2_pad/Pad/paddings", "op": "Const", "attr": {"value": {"tensor": {"dtype": "DT_INT32", "tensorShape": {"dim": [{"size": "4"}, {"size": "2"}]}}}, "dtype": {"type": "DT_INT32"}}}, {"name": "unknown_115", "op": "Const", "attr": {"value": {"tensor": {"dtype": "DT_FLOAT", "tensorShape": {"dim": [{"size": "1"}, {"size": "1"}, {"size": "128"}, {"size": "512"}]}}}, "dtype": {"type": "DT_FLOAT"}}}, {"name": "unknown_116", "op": "Const", "attr": {"dtype": {"type": "DT_FLOAT"}, "value": {"tensor": {"dtype": "DT_FLOAT", "tensorShape": {"dim": [{"size": "512"}]}}}}}, {"name": "StatefulPartitionedCall/center_net_resnet_feature_extractor/functional_3/functional_1/conv4_block1_2_pad/Pad/paddings", "op": "Const", "attr": {"dtype": {"type": "DT_INT32"}, "value": {"tensor": {"dtype": "DT_INT32", "tensorShape": {"dim": [{"size": "4"}, {"size": "2"}]}}}}}, {"name": "unknown_133", "op": "Const", "attr": {"dtype": {"type": "DT_FLOAT"}, "value": {"tensor": {"dtype": "DT_FLOAT", "tensorShape": {"dim": [{"size": "1"}, {"size": "1"}, {"size": "256"}, {"size": "1024"}]}}}}}, {"name": "unknown_134", "op": "Const", "attr": {"value": {"tensor": {"dtype": "DT_FLOAT", "tensorShape": {"dim": [{"size": "1024"}]}}}, "dtype": {"type": "DT_FLOAT"}}}, {"name": "StatefulPartitionedCall/center_net_resnet_feature_extractor/functional_3/functional_1/conv4_block2_2_pad/Pad/paddings", "op": "Const", "attr": {"dtype": {"type": "DT_INT32"}, "value": {"tensor": {"dtype": "DT_INT32", "tensorShape": {"dim": [{"size": "4"}, {"size": "2"}]}}}}}, {"name": "unknown_149", "op": "Const", "attr": {"value": {"tensor": {"dtype": "DT_FLOAT", "tensorShape": {"dim": [{"size": "1"}, {"size": "1"}, {"size": "256"}, {"size": "1024"}]}}}, "dtype": {"type": "DT_FLOAT"}}}, {"name": "unknown_150", "op": "Const", "attr": {"value": {"tensor": {"dtype": "DT_FLOAT", "tensorShape": {"dim": [{"size": "1024"}]}}}, "dtype": {"type": "DT_FLOAT"}}}, {"name": "StatefulPartitionedCall/center_net_resnet_feature_extractor/functional_3/functional_1/conv4_block3_2_pad/Pad/paddings", "op": "Const", "attr": {"value": {"tensor": {"dtype": "DT_INT32", "tensorShape": {"dim": [{"size": "4"}, {"size": "2"}]}}}, "dtype": {"type": "DT_INT32"}}}, {"name": "unknown_165", "op": "Const", "attr": {"value": {"tensor": {"dtype": "DT_FLOAT", "tensorShape": {"dim": [{"size": "1"}, {"size": "1"}, {"size": "256"}, {"size": "1024"}]}}}, "dtype": {"type": "DT_FLOAT"}}}, {"name": "unknown_166", "op": "Const", "attr": {"dtype": {"type": "DT_FLOAT"}, "value": {"tensor": {"dtype": "DT_FLOAT", "tensorShape": {"dim": [{"size": "1024"}]}}}}}, {"name": "StatefulPartitionedCall/center_net_resnet_feature_extractor/functional_3/functional_1/conv4_block4_2_pad/Pad/paddings", "op": "Const", "attr": {"value": {"tensor": {"dtype": "DT_INT32", "tensorShape": {"dim": [{"size": "4"}, {"size": "2"}]}}}, "dtype": {"type": "DT_INT32"}}}, {"name": "unknown_181", "op": "Const", "attr": {"value": {"tensor": {"dtype": "DT_FLOAT", "tensorShape": {"dim": [{"size": "1"}, {"size": "1"}, {"size": "256"}, {"size": "1024"}]}}}, "dtype": {"type": "DT_FLOAT"}}}, {"name": "unknown_182", "op": "Const", "attr": {"dtype": {"type": "DT_FLOAT"}, "value": {"tensor": {"dtype": "DT_FLOAT", "tensorShape": {"dim": [{"size": "1024"}]}}}}}, {"name": "StatefulPartitionedCall/center_net_resnet_feature_extractor/functional_3/functional_1/conv4_block5_2_pad/Pad/paddings", "op": "Const", "attr": {"value": {"tensor": {"dtype": "DT_INT32", "tensorShape": {"dim": [{"size": "4"}, {"size": "2"}]}}}, "dtype": {"type": "DT_INT32"}}}, {"name": "unknown_197", "op": "Const", "attr": {"value": {"tensor": {"dtype": "DT_FLOAT", "tensorShape": {"dim": [{"size": "1"}, {"size": "1"}, {"size": "256"}, {"size": "1024"}]}}}, "dtype": {"type": "DT_FLOAT"}}}, {"name": "unknown_198", "op": "Const", "attr": {"dtype": {"type": "DT_FLOAT"}, "value": {"tensor": {"dtype": "DT_FLOAT", "tensorShape": {"dim": [{"size": "1024"}]}}}}}, {"name": "StatefulPartitionedCall/center_net_resnet_feature_extractor/functional_3/functional_1/conv4_block6_2_pad/Pad/paddings", "op": "Const", "attr": {"dtype": {"type": "DT_INT32"}, "value": {"tensor": {"dtype": "DT_INT32", "tensorShape": {"dim": [{"size": "4"}, {"size": "2"}]}}}}}, {"name": "unknown_213", "op": "Const", "attr": {"dtype": {"type": "DT_FLOAT"}, "value": {"tensor": {"dtype": "DT_FLOAT", "tensorShape": {"dim": [{"size": "1"}, {"size": "1"}, {"size": "256"}, {"size": "1024"}]}}}}}, {"name": "unknown_214", "op": "Const", "attr": {"value": {"tensor": {"dtype": "DT_FLOAT", "tensorShape": {"dim": [{"size": "1024"}]}}}, "dtype": {"type": "DT_FLOAT"}}}, {"name": "StatefulPartitionedCall/center_net_resnet_feature_extractor/functional_3/functional_1/conv5_block1_2_pad/Pad/paddings", "op": "Const", "attr": {"value": {"tensor": {"dtype": "DT_INT32", "tensorShape": {"dim": [{"size": "4"}, {"size": "2"}]}}}, "dtype": {"type": "DT_INT32"}}}, {"name": "unknown_231", "op": "Const", "attr": {"value": {"tensor": {"dtype": "DT_FLOAT", "tensorShape": {"dim": [{"size": "1"}, {"size": "1"}, {"size": "512"}, {"size": "2048"}]}}}, "dtype": {"type": "DT_FLOAT"}}}, {"name": "unknown_232", "op": "Const", "attr": {"value": {"tensor": {"dtype": "DT_FLOAT", "tensorShape": {"dim": [{"size": "2048"}]}}}, "dtype": {"type": "DT_FLOAT"}}}, {"name": "StatefulPartitionedCall/center_net_resnet_feature_extractor/functional_3/functional_1/conv5_block2_2_pad/Pad/paddings", "op": "Const", "attr": {"value": {"tensor": {"dtype": "DT_INT32", "tensorShape": {"dim": [{"size": "4"}, {"size": "2"}]}}}, "dtype": {"type": "DT_INT32"}}}, {"name": "unknown_247", "op": "Const", "attr": {"value": {"tensor": {"dtype": "DT_FLOAT", "tensorShape": {"dim": [{"size": "1"}, {"size": "1"}, {"size": "512"}, {"size": "2048"}]}}}, "dtype": {"type": "DT_FLOAT"}}}, {"name": "unknown_248", "op": "Const", "attr": {"value": {"tensor": {"dtype": "DT_FLOAT", "tensorShape": {"dim": [{"size": "2048"}]}}}, "dtype": {"type": "DT_FLOAT"}}}, {"name": "StatefulPartitionedCall/center_net_resnet_feature_extractor/functional_3/functional_1/conv5_block3_2_pad/Pad/paddings", "op": "Const", "attr": {"value": {"tensor": {"dtype": "DT_INT32", "tensorShape": {"dim": [{"size": "4"}, {"size": "2"}]}}}, "dtype": {"type": "DT_INT32"}}}, {"name": "unknown_263", "op": "Const", "attr": {"dtype": {"type": "DT_FLOAT"}, "value": {"tensor": {"dtype": "DT_FLOAT", "tensorShape": {"dim": [{"size": "1"}, {"size": "1"}, {"size": "512"}, {"size": "2048"}]}}}}}, {"name": "unknown_264", "op": "Const", "attr": {"dtype": {"type": "DT_FLOAT"}, "value": {"tensor": {"dtype": "DT_FLOAT", "tensorShape": {"dim": [{"size": "2048"}]}}}}}, {"name": "unknown_272", "op": "Const", "attr": {"dtype": {"type": "DT_FLOAT"}, "value": {"tensor": {"dtype": "DT_FLOAT", "tensorShape": {"dim": [{"size": "256"}]}}}}}, {"name": "unknown_284", "op": "Const", "attr": {"dtype": {"type": "DT_FLOAT"}, "value": {"tensor": {"dtype": "DT_FLOAT", "tensorShape": {"dim": [{"size": "128"}]}}}}}, {"name": "unknown_296", "op": "Const", "attr": {"value": {"tensor": {"dtype": "DT_FLOAT", "tensorShape": {"dim": [{"size": "64"}]}}}, "dtype": {"type": "DT_FLOAT"}}}, {"name": "unknown_301", "op": "Const", "attr": {"dtype": {"type": "DT_FLOAT"}, "value": {"tensor": {"dtype": "DT_FLOAT", "tensorShape": {"dim": [{"size": "3"}, {"size": "3"}, {"size": "64"}, {"size": "256"}]}}}}}, {"name": "unknown_302", "op": "Const", "attr": {"value": {"tensor": {"dtype": "DT_FLOAT", "tensorShape": {"dim": [{"size": "256"}]}}}, "dtype": {"type": "DT_FLOAT"}}}, {"name": "unknown_303", "op": "Const", "attr": {"dtype": {"type": "DT_FLOAT"}, "value": {"tensor": {"dtype": "DT_FLOAT", "tensorShape": {"dim": [{"size": "1"}, {"size": "1"}, {"size": "256"}, {"size": "90"}]}}}}}, {"name": "unknown_304", "op": "Const", "attr": {"dtype": {"type": "DT_FLOAT"}, "value": {"tensor": {"dtype": "DT_FLOAT", "tensorShape": {"dim": [{"size": "90"}]}}}}}, {"name": "StatefulPartitionedCall/Less/y", "op": "Const", "attr": {"dtype": {"type": "DT_FLOAT"}, "value": {"tensor": {"dtype": "DT_FLOAT", "tensorShape": {}}}}}, {"name": "StatefulPartitionedCall/Reshape_2/shape", "op": "Const", "attr": {"dtype": {"type": "DT_INT32"}, "value": {"tensor": {"dtype": "DT_INT32", "tensorShape": {"dim": [{"size": "2"}]}}}}}, {"name": "StatefulPartitionedCall/TopKV2/k", "op": "Const", "attr": {"dtype": {"type": "DT_INT32"}, "value": {"tensor": {"dtype": "DT_INT32", "tensorShape": {}}}}}, {"name": "StatefulPartitionedCall/floordiv_2/y", "op": "Const", "attr": {"value": {"tensor": {"dtype": "DT_INT32", "tensorShape": {}}}, "dtype": {"type": "DT_INT32"}}}, {"name": "StatefulPartitionedCall/mod/y", "op": "Const", "attr": {"dtype": {"type": "DT_INT32"}, "value": {"tensor": {"dtype": "DT_INT32", "tensorShape": {}}}}}, {"name": "StatefulPartitionedCall/GatherV2/axis", "op": "Const", "attr": {"dtype": {"type": "DT_INT32"}, "value": {"tensor": {"dtype": "DT_INT32", "tensorShape": {}}}}}, {"name": "ConstantFolding/StatefulPartitionedCall/truediv_5_recip", "op": "Const", "attr": {"dtype": {"type": "DT_FLOAT"}, "value": {"tensor": {"dtype": "DT_FLOAT", "tensorShape": {}}}}}, {"name": "StatefulPartitionedCall/Scale/concat/axis", "op": "Const", "attr": {"dtype": {"type": "DT_INT32"}, "value": {"tensor": {"dtype": "DT_INT32", "tensorShape": {}}}}}, {"name": "StatefulPartitionedCall/ToNormalizedCoordinates/Const", "op": "Const", "attr": {"value": {"tensor": {"dtype": "DT_INT32", "tensorShape": {"dim": [{"size": "2"}]}}}, "dtype": {"type": "DT_INT32"}}}, {"name": "StatefulPartitionedCall/ToNormalizedCoordinates/Greater/y", "op": "Const", "attr": {"value": {"tensor": {"dtype": "DT_FLOAT", "tensorShape": {}}}, "dtype": {"type": "DT_FLOAT"}}}, {"name": "input_tensor", "op": "Placeholder", "attr": {"dtype": {"type": "DT_UINT8"}, "shape": {"shape": {"dim": [{"size": "1"}, {"size": "-1"}, {"size": "-1"}, {"size": "3"}]}}}}, {"name": "StatefulPartitionedCall/center_net_resnet_feature_extractor/functional_3/functional_1/conv5_block2_preact_bn/FusedBatchNormV3/Offset", "op": "Const", "attr": {"dtype": {"type": "DT_FLOAT"}, "value": {"tensor": {"dtype": "DT_FLOAT", "tensorShape": {"dim": [{"size": "2048"}]}}}}}, {"name": "StatefulPartitionedCall/center_net_resnet_feature_extractor/functional_3/functional_1/conv2_block1_1_conv/Conv2D_weights", "op": "Const", "attr": {"value": {"tensor": {"dtype": "DT_FLOAT", "tensorShape": {"dim": [{"size": "1"}, {"size": "1"}, {"size": "64"}, {"size": "64"}]}}}, "dtype": {"type": "DT_FLOAT"}}}, {"name": "StatefulPartitionedCall/center_net_resnet_feature_extractor/functional_3/functional_1/conv2_block1_1_conv/Conv2D_bn_offset", "op": "Const", "attr": {"dtype": {"type": "DT_FLOAT"}, "value": {"tensor": {"dtype": "DT_FLOAT", "tensorShape": {"dim": [{"size": "64"}]}}}}}, {"name": "StatefulPartitionedCall/center_net_resnet_feature_extractor/functional_3/functional_1/conv2_block1_2_conv/Conv2D_weights", "op": "Const", "attr": {"dtype": {"type": "DT_FLOAT"}, "value": {"tensor": {"dtype": "DT_FLOAT", "tensorShape": {"dim": [{"size": "3"}, {"size": "3"}, {"size": "64"}, {"size": "64"}]}}}}}, {"name": "StatefulPartitionedCall/center_net_resnet_feature_extractor/functional_3/functional_1/conv2_block1_2_conv/Conv2D_bn_offset", "op": "Const", "attr": {"dtype": {"type": "DT_FLOAT"}, "value": {"tensor": {"dtype": "DT_FLOAT", "tensorShape": {"dim": [{"size": "64"}]}}}}}, {"name": "StatefulPartitionedCall/center_net_resnet_feature_extractor/functional_3/functional_1/conv5_block1_preact_bn/FusedBatchNormV3/Scaled", "op": "Const", "attr": {"value": {"tensor": {"dtype": "DT_FLOAT", "tensorShape": {"dim": [{"size": "1024"}]}}}, "dtype": {"type": "DT_FLOAT"}}}, {"name": "StatefulPartitionedCall/center_net_resnet_feature_extractor/functional_3/functional_1/conv2_block2_1_conv/Conv2D_weights", "op": "Const", "attr": {"dtype": {"type": "DT_FLOAT"}, "value": {"tensor": {"dtype": "DT_FLOAT", "tensorShape": {"dim": [{"size": "1"}, {"size": "1"}, {"size": "256"}, {"size": "64"}]}}}}}, {"name": "StatefulPartitionedCall/center_net_resnet_feature_extractor/functional_3/functional_1/conv2_block2_1_conv/Conv2D_bn_offset", "op": "Const", "attr": {"value": {"tensor": {"dtype": "DT_FLOAT", "tensorShape": {"dim": [{"size": "64"}]}}}, "dtype": {"type": "DT_FLOAT"}}}, {"name": "StatefulPartitionedCall/center_net_resnet_feature_extractor/functional_3/functional_1/conv5_block1_preact_bn/FusedBatchNormV3/Offset", "op": "Const", "attr": {"dtype": {"type": "DT_FLOAT"}, "value": {"tensor": {"dtype": "DT_FLOAT", "tensorShape": {"dim": [{"size": "1024"}]}}}}}, {"name": "StatefulPartitionedCall/center_net_resnet_feature_extractor/functional_3/functional_1/conv2_block2_2_conv/Conv2D_weights", "op": "Const", "attr": {"value": {"tensor": {"dtype": "DT_FLOAT", "tensorShape": {"dim": [{"size": "3"}, {"size": "3"}, {"size": "64"}, {"size": "64"}]}}}, "dtype": {"type": "DT_FLOAT"}}}, {"name": "StatefulPartitionedCall/center_net_resnet_feature_extractor/functional_3/functional_1/conv2_block2_2_conv/Conv2D_bn_offset", "op": "Const", "attr": {"value": {"tensor": {"dtype": "DT_FLOAT", "tensorShape": {"dim": [{"size": "64"}]}}}, "dtype": {"type": "DT_FLOAT"}}}, {"name": "StatefulPartitionedCall/center_net_resnet_feature_extractor/functional_3/functional_1/conv2_block3_1_conv/Conv2D_weights", "op": "Const", "attr": {"dtype": {"type": "DT_FLOAT"}, "value": {"tensor": {"dtype": "DT_FLOAT", "tensorShape": {"dim": [{"size": "1"}, {"size": "1"}, {"size": "256"}, {"size": "64"}]}}}}}, {"name": "StatefulPartitionedCall/center_net_resnet_feature_extractor/functional_3/functional_1/conv4_block6_preact_bn/FusedBatchNormV3/Scaled", "op": "Const", "attr": {"dtype": {"type": "DT_FLOAT"}, "value": {"tensor": {"dtype": "DT_FLOAT", "tensorShape": {"dim": [{"size": "1024"}]}}}}}, {"name": "StatefulPartitionedCall/center_net_resnet_feature_extractor/functional_3/functional_1/conv2_block3_1_conv/Conv2D_bn_offset", "op": "Const", "attr": {"dtype": {"type": "DT_FLOAT"}, "value": {"tensor": {"dtype": "DT_FLOAT", "tensorShape": {"dim": [{"size": "64"}]}}}}}, {"name": "StatefulPartitionedCall/center_net_resnet_feature_extractor/functional_3/functional_1/conv2_block3_2_conv/Conv2D_weights", "op": "Const", "attr": {"value": {"tensor": {"dtype": "DT_FLOAT", "tensorShape": {"dim": [{"size": "3"}, {"size": "3"}, {"size": "64"}, {"size": "64"}]}}}, "dtype": {"type": "DT_FLOAT"}}}, {"name": "StatefulPartitionedCall/center_net_resnet_feature_extractor/functional_3/functional_1/conv2_block3_2_conv/Conv2D_bn_offset", "op": "Const", "attr": {"value": {"tensor": {"dtype": "DT_FLOAT", "tensorShape": {"dim": [{"size": "64"}]}}}, "dtype": {"type": "DT_FLOAT"}}}, {"name": "StatefulPartitionedCall/center_net_resnet_feature_extractor/functional_3/functional_1/conv4_block6_preact_bn/FusedBatchNormV3/Offset", "op": "Const", "attr": {"dtype": {"type": "DT_FLOAT"}, "value": {"tensor": {"dtype": "DT_FLOAT", "tensorShape": {"dim": [{"size": "1024"}]}}}}}, {"name": "StatefulPartitionedCall/center_net_resnet_feature_extractor/functional_3/functional_1/conv3_block1_1_conv/Conv2D_weights", "op": "Const", "attr": {"dtype": {"type": "DT_FLOAT"}, "value": {"tensor": {"dtype": "DT_FLOAT", "tensorShape": {"dim": [{"size": "1"}, {"size": "1"}, {"size": "256"}, {"size": "128"}]}}}}}, {"name": "StatefulPartitionedCall/center_net_resnet_feature_extractor/functional_3/functional_1/conv3_block1_1_conv/Conv2D_bn_offset", "op": "Const", "attr": {"value": {"tensor": {"dtype": "DT_FLOAT", "tensorShape": {"dim": [{"size": "128"}]}}}, "dtype": {"type": "DT_FLOAT"}}}, {"name": "StatefulPartitionedCall/center_net_resnet_feature_extractor/functional_3/functional_1/conv4_block5_preact_bn/FusedBatchNormV3/Scaled", "op": "Const", "attr": {"value": {"tensor": {"dtype": "DT_FLOAT", "tensorShape": {"dim": [{"size": "1024"}]}}}, "dtype": {"type": "DT_FLOAT"}}}, {"name": "StatefulPartitionedCall/center_net_resnet_feature_extractor/functional_3/functional_1/conv3_block1_2_conv/Conv2D_weights", "op": "Const", "attr": {"dtype": {"type": "DT_FLOAT"}, "value": {"tensor": {"dtype": "DT_FLOAT", "tensorShape": {"dim": [{"size": "3"}, {"size": "3"}, {"size": "128"}, {"size": "128"}]}}}}}, {"name": "StatefulPartitionedCall/center_net_resnet_feature_extractor/functional_3/functional_1/conv3_block1_2_conv/Conv2D_bn_offset", "op": "Const", "attr": {"value": {"tensor": {"dtype": "DT_FLOAT", "tensorShape": {"dim": [{"size": "128"}]}}}, "dtype": {"type": "DT_FLOAT"}}}, {"name": "StatefulPartitionedCall/center_net_resnet_feature_extractor/functional_3/functional_1/conv4_block5_preact_bn/FusedBatchNormV3/Offset", "op": "Const", "attr": {"value": {"tensor": {"dtype": "DT_FLOAT", "tensorShape": {"dim": [{"size": "1024"}]}}}, "dtype": {"type": "DT_FLOAT"}}}, {"name": "StatefulPartitionedCall/center_net_resnet_feature_extractor/functional_3/functional_1/conv3_block2_1_conv/Conv2D_weights", "op": "Const", "attr": {"dtype": {"type": "DT_FLOAT"}, "value": {"tensor": {"dtype": "DT_FLOAT", "tensorShape": {"dim": [{"size": "1"}, {"size": "1"}, {"size": "512"}, {"size": "128"}]}}}}}, {"name": "StatefulPartitionedCall/center_net_resnet_feature_extractor/functional_3/functional_1/conv3_block2_1_conv/Conv2D_bn_offset", "op": "Const", "attr": {"dtype": {"type": "DT_FLOAT"}, "value": {"tensor": {"dtype": "DT_FLOAT", "tensorShape": {"dim": [{"size": "128"}]}}}}}, {"name": "StatefulPartitionedCall/center_net_resnet_feature_extractor/functional_3/functional_1/conv3_block2_2_conv/Conv2D_weights", "op": "Const", "attr": {"dtype": {"type": "DT_FLOAT"}, "value": {"tensor": {"dtype": "DT_FLOAT", "tensorShape": {"dim": [{"size": "3"}, {"size": "3"}, {"size": "128"}, {"size": "128"}]}}}}}, {"name": "StatefulPartitionedCall/center_net_resnet_feature_extractor/functional_3/functional_1/conv3_block2_2_conv/Conv2D_bn_offset", "op": "Const", "attr": {"value": {"tensor": {"dtype": "DT_FLOAT", "tensorShape": {"dim": [{"size": "128"}]}}}, "dtype": {"type": "DT_FLOAT"}}}, {"name": "StatefulPartitionedCall/center_net_resnet_feature_extractor/functional_3/functional_1/conv4_block4_preact_bn/FusedBatchNormV3/Scaled", "op": "Const", "attr": {"dtype": {"type": "DT_FLOAT"}, "value": {"tensor": {"dtype": "DT_FLOAT", "tensorShape": {"dim": [{"size": "1024"}]}}}}}, {"name": "StatefulPartitionedCall/center_net_resnet_feature_extractor/functional_3/functional_1/conv3_block3_1_conv/Conv2D_weights", "op": "Const", "attr": {"dtype": {"type": "DT_FLOAT"}, "value": {"tensor": {"dtype": "DT_FLOAT", "tensorShape": {"dim": [{"size": "1"}, {"size": "1"}, {"size": "512"}, {"size": "128"}]}}}}}, {"name": "StatefulPartitionedCall/center_net_resnet_feature_extractor/functional_3/functional_1/conv3_block3_1_conv/Conv2D_bn_offset", "op": "Const", "attr": {"dtype": {"type": "DT_FLOAT"}, "value": {"tensor": {"dtype": "DT_FLOAT", "tensorShape": {"dim": [{"size": "128"}]}}}}}, {"name": "StatefulPartitionedCall/center_net_resnet_feature_extractor/functional_3/functional_1/conv4_block4_preact_bn/FusedBatchNormV3/Offset", "op": "Const", "attr": {"dtype": {"type": "DT_FLOAT"}, "value": {"tensor": {"dtype": "DT_FLOAT", "tensorShape": {"dim": [{"size": "1024"}]}}}}}, {"name": "StatefulPartitionedCall/center_net_resnet_feature_extractor/functional_3/functional_1/conv3_block3_2_conv/Conv2D_weights", "op": "Const", "attr": {"dtype": {"type": "DT_FLOAT"}, "value": {"tensor": {"dtype": "DT_FLOAT", "tensorShape": {"dim": [{"size": "3"}, {"size": "3"}, {"size": "128"}, {"size": "128"}]}}}}}, {"name": "StatefulPartitionedCall/center_net_resnet_feature_extractor/functional_3/functional_1/conv3_block3_2_conv/Conv2D_bn_offset", "op": "Const", "attr": {"dtype": {"type": "DT_FLOAT"}, "value": {"tensor": {"dtype": "DT_FLOAT", "tensorShape": {"dim": [{"size": "128"}]}}}}}, {"name": "StatefulPartitionedCall/center_net_resnet_feature_extractor/functional_3/functional_1/conv3_block4_1_conv/Conv2D_weights", "op": "Const", "attr": {"value": {"tensor": {"dtype": "DT_FLOAT", "tensorShape": {"dim": [{"size": "1"}, {"size": "1"}, {"size": "512"}, {"size": "128"}]}}}, "dtype": {"type": "DT_FLOAT"}}}, {"name": "StatefulPartitionedCall/center_net_resnet_feature_extractor/functional_3/functional_1/conv4_block3_preact_bn/FusedBatchNormV3/Scaled", "op": "Const", "attr": {"dtype": {"type": "DT_FLOAT"}, "value": {"tensor": {"dtype": "DT_FLOAT", "tensorShape": {"dim": [{"size": "1024"}]}}}}}, {"name": "StatefulPartitionedCall/center_net_resnet_feature_extractor/functional_3/functional_1/conv3_block4_1_conv/Conv2D_bn_offset", "op": "Const", "attr": {"value": {"tensor": {"dtype": "DT_FLOAT", "tensorShape": {"dim": [{"size": "128"}]}}}, "dtype": {"type": "DT_FLOAT"}}}, {"name": "StatefulPartitionedCall/center_net_resnet_feature_extractor/functional_3/functional_1/conv3_block4_2_conv/Conv2D_weights", "op": "Const", "attr": {"value": {"tensor": {"dtype": "DT_FLOAT", "tensorShape": {"dim": [{"size": "3"}, {"size": "3"}, {"size": "128"}, {"size": "128"}]}}}, "dtype": {"type": "DT_FLOAT"}}}, {"name": "StatefulPartitionedCall/center_net_resnet_feature_extractor/functional_3/functional_1/conv3_block4_2_conv/Conv2D_bn_offset", "op": "Const", "attr": {"value": {"tensor": {"dtype": "DT_FLOAT", "tensorShape": {"dim": [{"size": "128"}]}}}, "dtype": {"type": "DT_FLOAT"}}}, {"name": "StatefulPartitionedCall/center_net_resnet_feature_extractor/functional_3/functional_1/conv4_block3_preact_bn/FusedBatchNormV3/Offset", "op": "Const", "attr": {"dtype": {"type": "DT_FLOAT"}, "value": {"tensor": {"dtype": "DT_FLOAT", "tensorShape": {"dim": [{"size": "1024"}]}}}}}, {"name": "StatefulPartitionedCall/center_net_resnet_feature_extractor/functional_3/functional_1/conv4_block1_1_conv/Conv2D_weights", "op": "Const", "attr": {"dtype": {"type": "DT_FLOAT"}, "value": {"tensor": {"dtype": "DT_FLOAT", "tensorShape": {"dim": [{"size": "1"}, {"size": "1"}, {"size": "512"}, {"size": "256"}]}}}}}, {"name": "StatefulPartitionedCall/center_net_resnet_feature_extractor/functional_3/functional_1/conv4_block1_1_conv/Conv2D_bn_offset", "op": "Const", "attr": {"dtype": {"type": "DT_FLOAT"}, "value": {"tensor": {"dtype": "DT_FLOAT", "tensorShape": {"dim": [{"size": "256"}]}}}}}, {"name": "StatefulPartitionedCall/center_net_resnet_feature_extractor/functional_3/functional_1/conv4_block2_preact_bn/FusedBatchNormV3/Scaled", "op": "Const", "attr": {"value": {"tensor": {"dtype": "DT_FLOAT", "tensorShape": {"dim": [{"size": "1024"}]}}}, "dtype": {"type": "DT_FLOAT"}}}, {"name": "StatefulPartitionedCall/center_net_resnet_feature_extractor/functional_3/functional_1/conv4_block1_2_conv/Conv2D_weights", "op": "Const", "attr": {"value": {"tensor": {"dtype": "DT_FLOAT", "tensorShape": {"dim": [{"size": "3"}, {"size": "3"}, {"size": "256"}, {"size": "256"}]}}}, "dtype": {"type": "DT_FLOAT"}}}, {"name": "StatefulPartitionedCall/center_net_resnet_feature_extractor/functional_3/functional_1/conv4_block1_2_conv/Conv2D_bn_offset", "op": "Const", "attr": {"dtype": {"type": "DT_FLOAT"}, "value": {"tensor": {"dtype": "DT_FLOAT", "tensorShape": {"dim": [{"size": "256"}]}}}}}, {"name": "StatefulPartitionedCall/center_net_resnet_feature_extractor/functional_3/functional_1/conv4_block2_preact_bn/FusedBatchNormV3/Offset", "op": "Const", "attr": {"value": {"tensor": {"dtype": "DT_FLOAT", "tensorShape": {"dim": [{"size": "1024"}]}}}, "dtype": {"type": "DT_FLOAT"}}}, {"name": "StatefulPartitionedCall/center_net_resnet_feature_extractor/functional_3/functional_1/conv4_block2_1_conv/Conv2D_weights", "op": "Const", "attr": {"dtype": {"type": "DT_FLOAT"}, "value": {"tensor": {"dtype": "DT_FLOAT", "tensorShape": {"dim": [{"size": "1"}, {"size": "1"}, {"size": "1024"}, {"size": "256"}]}}}}}, {"name": "StatefulPartitionedCall/center_net_resnet_feature_extractor/functional_3/functional_1/conv4_block2_1_conv/Conv2D_bn_offset", "op": "Const", "attr": {"value": {"tensor": {"dtype": "DT_FLOAT", "tensorShape": {"dim": [{"size": "256"}]}}}, "dtype": {"type": "DT_FLOAT"}}}, {"name": "StatefulPartitionedCall/center_net_resnet_feature_extractor/functional_3/functional_1/conv4_block2_2_conv/Conv2D_weights", "op": "Const", "attr": {"dtype": {"type": "DT_FLOAT"}, "value": {"tensor": {"dtype": "DT_FLOAT", "tensorShape": {"dim": [{"size": "3"}, {"size": "3"}, {"size": "256"}, {"size": "256"}]}}}}}, {"name": "StatefulPartitionedCall/center_net_resnet_feature_extractor/functional_3/functional_1/conv4_block2_2_conv/Conv2D_bn_offset", "op": "Const", "attr": {"value": {"tensor": {"dtype": "DT_FLOAT", "tensorShape": {"dim": [{"size": "256"}]}}}, "dtype": {"type": "DT_FLOAT"}}}, {"name": "StatefulPartitionedCall/center_net_resnet_feature_extractor/functional_3/functional_1/conv4_block1_preact_bn/FusedBatchNormV3/Scaled", "op": "Const", "attr": {"value": {"tensor": {"dtype": "DT_FLOAT", "tensorShape": {"dim": [{"size": "512"}]}}}, "dtype": {"type": "DT_FLOAT"}}}, {"name": "StatefulPartitionedCall/center_net_resnet_feature_extractor/functional_3/functional_1/conv4_block3_1_conv/Conv2D_weights", "op": "Const", "attr": {"value": {"tensor": {"dtype": "DT_FLOAT", "tensorShape": {"dim": [{"size": "1"}, {"size": "1"}, {"size": "1024"}, {"size": "256"}]}}}, "dtype": {"type": "DT_FLOAT"}}}, {"name": "StatefulPartitionedCall/center_net_resnet_feature_extractor/functional_3/functional_1/conv4_block3_1_conv/Conv2D_bn_offset", "op": "Const", "attr": {"dtype": {"type": "DT_FLOAT"}, "value": {"tensor": {"dtype": "DT_FLOAT", "tensorShape": {"dim": [{"size": "256"}]}}}}}, {"name": "StatefulPartitionedCall/center_net_resnet_feature_extractor/functional_3/functional_1/conv4_block1_preact_bn/FusedBatchNormV3/Offset", "op": "Const", "attr": {"dtype": {"type": "DT_FLOAT"}, "value": {"tensor": {"dtype": "DT_FLOAT", "tensorShape": {"dim": [{"size": "512"}]}}}}}, {"name": "StatefulPartitionedCall/center_net_resnet_feature_extractor/functional_3/functional_1/conv4_block3_2_conv/Conv2D_weights", "op": "Const", "attr": {"value": {"tensor": {"dtype": "DT_FLOAT", "tensorShape": {"dim": [{"size": "3"}, {"size": "3"}, {"size": "256"}, {"size": "256"}]}}}, "dtype": {"type": "DT_FLOAT"}}}, {"name": "StatefulPartitionedCall/center_net_resnet_feature_extractor/functional_3/functional_1/conv4_block3_2_conv/Conv2D_bn_offset", "op": "Const", "attr": {"dtype": {"type": "DT_FLOAT"}, "value": {"tensor": {"dtype": "DT_FLOAT", "tensorShape": {"dim": [{"size": "256"}]}}}}}, {"name": "StatefulPartitionedCall/center_net_resnet_feature_extractor/functional_3/functional_1/conv4_block4_1_conv/Conv2D_weights", "op": "Const", "attr": {"value": {"tensor": {"dtype": "DT_FLOAT", "tensorShape": {"dim": [{"size": "1"}, {"size": "1"}, {"size": "1024"}, {"size": "256"}]}}}, "dtype": {"type": "DT_FLOAT"}}}, {"name": "StatefulPartitionedCall/center_net_resnet_feature_extractor/functional_3/functional_1/conv3_block4_preact_bn/FusedBatchNormV3/Scaled", "op": "Const", "attr": {"dtype": {"type": "DT_FLOAT"}, "value": {"tensor": {"dtype": "DT_FLOAT", "tensorShape": {"dim": [{"size": "512"}]}}}}}, {"name": "StatefulPartitionedCall/center_net_resnet_feature_extractor/functional_3/functional_1/conv4_block4_1_conv/Conv2D_bn_offset", "op": "Const", "attr": {"dtype": {"type": "DT_FLOAT"}, "value": {"tensor": {"dtype": "DT_FLOAT", "tensorShape": {"dim": [{"size": "256"}]}}}}}, {"name": "StatefulPartitionedCall/center_net_resnet_feature_extractor/functional_3/functional_1/conv4_block4_2_conv/Conv2D_weights", "op": "Const", "attr": {"dtype": {"type": "DT_FLOAT"}, "value": {"tensor": {"dtype": "DT_FLOAT", "tensorShape": {"dim": [{"size": "3"}, {"size": "3"}, {"size": "256"}, {"size": "256"}]}}}}}, {"name": "StatefulPartitionedCall/center_net_resnet_feature_extractor/functional_3/functional_1/conv4_block4_2_conv/Conv2D_bn_offset", "op": "Const", "attr": {"dtype": {"type": "DT_FLOAT"}, "value": {"tensor": {"dtype": "DT_FLOAT", "tensorShape": {"dim": [{"size": "256"}]}}}}}, {"name": "StatefulPartitionedCall/center_net_resnet_feature_extractor/functional_3/functional_1/conv3_block4_preact_bn/FusedBatchNormV3/Offset", "op": "Const", "attr": {"value": {"tensor": {"dtype": "DT_FLOAT", "tensorShape": {"dim": [{"size": "512"}]}}}, "dtype": {"type": "DT_FLOAT"}}}, {"name": "StatefulPartitionedCall/center_net_resnet_feature_extractor/functional_3/functional_1/conv4_block5_1_conv/Conv2D_weights", "op": "Const", "attr": {"value": {"tensor": {"dtype": "DT_FLOAT", "tensorShape": {"dim": [{"size": "1"}, {"size": "1"}, {"size": "1024"}, {"size": "256"}]}}}, "dtype": {"type": "DT_FLOAT"}}}, {"name": "StatefulPartitionedCall/center_net_resnet_feature_extractor/functional_3/functional_1/conv4_block5_1_conv/Conv2D_bn_offset", "op": "Const", "attr": {"dtype": {"type": "DT_FLOAT"}, "value": {"tensor": {"dtype": "DT_FLOAT", "tensorShape": {"dim": [{"size": "256"}]}}}}}, {"name": "StatefulPartitionedCall/center_net_resnet_feature_extractor/functional_3/functional_1/conv4_block5_2_conv/Conv2D_weights", "op": "Const", "attr": {"dtype": {"type": "DT_FLOAT"}, "value": {"tensor": {"dtype": "DT_FLOAT", "tensorShape": {"dim": [{"size": "3"}, {"size": "3"}, {"size": "256"}, {"size": "256"}]}}}}}, {"name": "StatefulPartitionedCall/center_net_resnet_feature_extractor/functional_3/functional_1/conv3_block3_preact_bn/FusedBatchNormV3/Scaled", "op": "Const", "attr": {"dtype": {"type": "DT_FLOAT"}, "value": {"tensor": {"dtype": "DT_FLOAT", "tensorShape": {"dim": [{"size": "512"}]}}}}}, {"name": "StatefulPartitionedCall/center_net_resnet_feature_extractor/functional_3/functional_1/conv4_block5_2_conv/Conv2D_bn_offset", "op": "Const", "attr": {"value": {"tensor": {"dtype": "DT_FLOAT", "tensorShape": {"dim": [{"size": "256"}]}}}, "dtype": {"type": "DT_FLOAT"}}}, {"name": "StatefulPartitionedCall/center_net_resnet_feature_extractor/functional_3/functional_1/conv4_block6_1_conv/Conv2D_weights", "op": "Const", "attr": {"dtype": {"type": "DT_FLOAT"}, "value": {"tensor": {"dtype": "DT_FLOAT", "tensorShape": {"dim": [{"size": "1"}, {"size": "1"}, {"size": "1024"}, {"size": "256"}]}}}}}, {"name": "StatefulPartitionedCall/center_net_resnet_feature_extractor/functional_3/functional_1/conv3_block3_preact_bn/FusedBatchNormV3/Offset", "op": "Const", "attr": {"dtype": {"type": "DT_FLOAT"}, "value": {"tensor": {"dtype": "DT_FLOAT", "tensorShape": {"dim": [{"size": "512"}]}}}}}, {"name": "StatefulPartitionedCall/center_net_resnet_feature_extractor/functional_3/functional_1/conv4_block6_1_conv/Conv2D_bn_offset", "op": "Const", "attr": {"dtype": {"type": "DT_FLOAT"}, "value": {"tensor": {"dtype": "DT_FLOAT", "tensorShape": {"dim": [{"size": "256"}]}}}}}, {"name": "StatefulPartitionedCall/center_net_resnet_feature_extractor/functional_3/functional_1/conv4_block6_2_conv/Conv2D_weights", "op": "Const", "attr": {"dtype": {"type": "DT_FLOAT"}, "value": {"tensor": {"dtype": "DT_FLOAT", "tensorShape": {"dim": [{"size": "3"}, {"size": "3"}, {"size": "256"}, {"size": "256"}]}}}}}, {"name": "StatefulPartitionedCall/center_net_resnet_feature_extractor/functional_3/functional_1/conv4_block6_2_conv/Conv2D_bn_offset", "op": "Const", "attr": {"dtype": {"type": "DT_FLOAT"}, "value": {"tensor": {"dtype": "DT_FLOAT", "tensorShape": {"dim": [{"size": "256"}]}}}}}, {"name": "StatefulPartitionedCall/center_net_resnet_feature_extractor/functional_3/functional_1/conv3_block2_preact_bn/FusedBatchNormV3/Scaled", "op": "Const", "attr": {"value": {"tensor": {"dtype": "DT_FLOAT", "tensorShape": {"dim": [{"size": "512"}]}}}, "dtype": {"type": "DT_FLOAT"}}}, {"name": "StatefulPartitionedCall/center_net_resnet_feature_extractor/functional_3/functional_1/conv5_block1_1_conv/Conv2D_weights", "op": "Const", "attr": {"dtype": {"type": "DT_FLOAT"}, "value": {"tensor": {"dtype": "DT_FLOAT", "tensorShape": {"dim": [{"size": "1"}, {"size": "1"}, {"size": "1024"}, {"size": "512"}]}}}}}, {"name": "StatefulPartitionedCall/center_net_resnet_feature_extractor/functional_3/functional_1/conv5_block1_1_conv/Conv2D_bn_offset", "op": "Const", "attr": {"dtype": {"type": "DT_FLOAT"}, "value": {"tensor": {"dtype": "DT_FLOAT", "tensorShape": {"dim": [{"size": "512"}]}}}}}, {"name": "StatefulPartitionedCall/center_net_resnet_feature_extractor/functional_3/functional_1/conv3_block2_preact_bn/FusedBatchNormV3/Offset", "op": "Const", "attr": {"dtype": {"type": "DT_FLOAT"}, "value": {"tensor": {"dtype": "DT_FLOAT", "tensorShape": {"dim": [{"size": "512"}]}}}}}, {"name": "StatefulPartitionedCall/center_net_resnet_feature_extractor/functional_3/functional_1/conv5_block1_2_conv/Conv2D_weights", "op": "Const", "attr": {"dtype": {"type": "DT_FLOAT"}, "value": {"tensor": {"dtype": "DT_FLOAT", "tensorShape": {"dim": [{"size": "3"}, {"size": "3"}, {"size": "512"}, {"size": "512"}]}}}}}, {"name": "StatefulPartitionedCall/center_net_resnet_feature_extractor/functional_3/functional_1/conv5_block1_2_conv/Conv2D_bn_offset", "op": "Const", "attr": {"dtype": {"type": "DT_FLOAT"}, "value": {"tensor": {"dtype": "DT_FLOAT", "tensorShape": {"dim": [{"size": "512"}]}}}}}, {"name": "StatefulPartitionedCall/center_net_resnet_feature_extractor/functional_3/functional_1/conv5_block2_1_conv/Conv2D_weights", "op": "Const", "attr": {"dtype": {"type": "DT_FLOAT"}, "value": {"tensor": {"dtype": "DT_FLOAT", "tensorShape": {"dim": [{"size": "1"}, {"size": "1"}, {"size": "2048"}, {"size": "512"}]}}}}}, {"name": "StatefulPartitionedCall/center_net_resnet_feature_extractor/functional_3/functional_1/conv3_block1_preact_bn/FusedBatchNormV3/Scaled", "op": "Const", "attr": {"value": {"tensor": {"dtype": "DT_FLOAT", "tensorShape": {"dim": [{"size": "256"}]}}}, "dtype": {"type": "DT_FLOAT"}}}, {"name": "StatefulPartitionedCall/center_net_resnet_feature_extractor/functional_3/functional_1/conv5_block2_1_conv/Conv2D_bn_offset", "op": "Const", "attr": {"value": {"tensor": {"dtype": "DT_FLOAT", "tensorShape": {"dim": [{"size": "512"}]}}}, "dtype": {"type": "DT_FLOAT"}}}, {"name": "StatefulPartitionedCall/center_net_resnet_feature_extractor/functional_3/functional_1/conv5_block2_2_conv/Conv2D_weights", "op": "Const", "attr": {"dtype": {"type": "DT_FLOAT"}, "value": {"tensor": {"dtype": "DT_FLOAT", "tensorShape": {"dim": [{"size": "3"}, {"size": "3"}, {"size": "512"}, {"size": "512"}]}}}}}, {"name": "StatefulPartitionedCall/center_net_resnet_feature_extractor/functional_3/functional_1/conv5_block2_2_conv/Conv2D_bn_offset", "op": "Const", "attr": {"value": {"tensor": {"dtype": "DT_FLOAT", "tensorShape": {"dim": [{"size": "512"}]}}}, "dtype": {"type": "DT_FLOAT"}}}, {"name": "StatefulPartitionedCall/center_net_resnet_feature_extractor/functional_3/functional_1/conv3_block1_preact_bn/FusedBatchNormV3/Offset", "op": "Const", "attr": {"value": {"tensor": {"dtype": "DT_FLOAT", "tensorShape": {"dim": [{"size": "256"}]}}}, "dtype": {"type": "DT_FLOAT"}}}, {"name": "StatefulPartitionedCall/center_net_resnet_feature_extractor/functional_3/functional_1/conv5_block3_1_conv/Conv2D_weights", "op": "Const", "attr": {"dtype": {"type": "DT_FLOAT"}, "value": {"tensor": {"dtype": "DT_FLOAT", "tensorShape": {"dim": [{"size": "1"}, {"size": "1"}, {"size": "2048"}, {"size": "512"}]}}}}}, {"name": "StatefulPartitionedCall/center_net_resnet_feature_extractor/functional_3/functional_1/conv5_block3_1_conv/Conv2D_bn_offset", "op": "Const", "attr": {"dtype": {"type": "DT_FLOAT"}, "value": {"tensor": {"dtype": "DT_FLOAT", "tensorShape": {"dim": [{"size": "512"}]}}}}}, {"name": "StatefulPartitionedCall/center_net_resnet_feature_extractor/functional_3/functional_1/conv5_block3_2_conv/Conv2D_weights", "op": "Const", "attr": {"dtype": {"type": "DT_FLOAT"}, "value": {"tensor": {"dtype": "DT_FLOAT", "tensorShape": {"dim": [{"size": "3"}, {"size": "3"}, {"size": "512"}, {"size": "512"}]}}}}}, {"name": "StatefulPartitionedCall/center_net_resnet_feature_extractor/functional_3/functional_1/conv2_block3_preact_bn/FusedBatchNormV3/Scaled", "op": "Const", "attr": {"value": {"tensor": {"dtype": "DT_FLOAT", "tensorShape": {"dim": [{"size": "256"}]}}}, "dtype": {"type": "DT_FLOAT"}}}, {"name": "StatefulPartitionedCall/center_net_resnet_feature_extractor/functional_3/functional_1/conv5_block3_2_conv/Conv2D_bn_offset", "op": "Const", "attr": {"dtype": {"type": "DT_FLOAT"}, "value": {"tensor": {"dtype": "DT_FLOAT", "tensorShape": {"dim": [{"size": "512"}]}}}}}, {"name": "StatefulPartitionedCall/center_net_resnet_feature_extractor/functional_3/conv2d/Conv2D_weights", "op": "Const", "attr": {"dtype": {"type": "DT_FLOAT"}, "value": {"tensor": {"dtype": "DT_FLOAT", "tensorShape": {"dim": [{"size": "3"}, {"size": "3"}, {"size": "2048"}, {"size": "256"}]}}}}}, {"name": "StatefulPartitionedCall/center_net_resnet_feature_extractor/functional_3/functional_1/conv2_block3_preact_bn/FusedBatchNormV3/Offset", "op": "Const", "attr": {"value": {"tensor": {"dtype": "DT_FLOAT", "tensorShape": {"dim": [{"size": "256"}]}}}, "dtype": {"type": "DT_FLOAT"}}}, {"name": "StatefulPartitionedCall/center_net_resnet_feature_extractor/functional_3/conv2d/Conv2D_bn_offset", "op": "Const", "attr": {"dtype": {"type": "DT_FLOAT"}, "value": {"tensor": {"dtype": "DT_FLOAT", "tensorShape": {"dim": [{"size": "256"}]}}}}}, {"name": "StatefulPartitionedCall/center_net_resnet_feature_extractor/functional_3/conv2d_1/Conv2D_weights", "op": "Const", "attr": {"dtype": {"type": "DT_FLOAT"}, "value": {"tensor": {"dtype": "DT_FLOAT", "tensorShape": {"dim": [{"size": "3"}, {"size": "3"}, {"size": "256"}, {"size": "128"}]}}}}}, {"name": "StatefulPartitionedCall/center_net_resnet_feature_extractor/functional_3/conv2d_1/Conv2D_bn_offset", "op": "Const", "attr": {"value": {"tensor": {"dtype": "DT_FLOAT", "tensorShape": {"dim": [{"size": "128"}]}}}, "dtype": {"type": "DT_FLOAT"}}}, {"name": "StatefulPartitionedCall/center_net_resnet_feature_extractor/functional_3/conv2d_2/Conv2D_weights", "op": "Const", "attr": {"dtype": {"type": "DT_FLOAT"}, "value": {"tensor": {"dtype": "DT_FLOAT", "tensorShape": {"dim": [{"size": "3"}, {"size": "3"}, {"size": "128"}, {"size": "64"}]}}}}}, {"name": "StatefulPartitionedCall/center_net_resnet_feature_extractor/functional_3/functional_1/conv2_block2_preact_bn/FusedBatchNormV3/Scaled", "op": "Const", "attr": {"value": {"tensor": {"dtype": "DT_FLOAT", "tensorShape": {"dim": [{"size": "256"}]}}}, "dtype": {"type": "DT_FLOAT"}}}, {"name": "StatefulPartitionedCall/center_net_resnet_feature_extractor/functional_3/conv2d_2/Conv2D_bn_offset", "op": "Const", "attr": {"value": {"tensor": {"dtype": "DT_FLOAT", "tensorShape": {"dim": [{"size": "64"}]}}}, "dtype": {"type": "DT_FLOAT"}}}, {"name": "StatefulPartitionedCall/center_net_resnet_feature_extractor/functional_3/functional_1/conv2_block2_preact_bn/FusedBatchNormV3/Offset", "op": "Const", "attr": {"dtype": {"type": "DT_FLOAT"}, "value": {"tensor": {"dtype": "DT_FLOAT", "tensorShape": {"dim": [{"size": "256"}]}}}}}, {"name": "StatefulPartitionedCall/center_net_resnet_feature_extractor/functional_3/functional_1/conv2_block1_preact_bn/FusedBatchNormV3/Scaled", "op": "Const", "attr": {"dtype": {"type": "DT_FLOAT"}, "value": {"tensor": {"dtype": "DT_FLOAT", "tensorShape": {"dim": [{"size": "64"}]}}}}}, {"name": "StatefulPartitionedCall/center_net_resnet_feature_extractor/functional_3/functional_1/conv2_block1_preact_bn/FusedBatchNormV3/Offset", "op": "Const", "attr": {"value": {"tensor": {"dtype": "DT_FLOAT", "tensorShape": {"dim": [{"size": "64"}]}}}, "dtype": {"type": "DT_FLOAT"}}}, {"name": "StatefulPartitionedCall/center_net_resnet_feature_extractor/functional_3/batch_normalization_5/FusedBatchNormV3/Scaled", "op": "Const", "attr": {"value": {"tensor": {"dtype": "DT_FLOAT", "tensorShape": {"dim": [{"size": "64"}]}}}, "dtype": {"type": "DT_FLOAT"}}}, {"name": "StatefulPartitionedCall/center_net_resnet_feature_extractor/functional_3/batch_normalization_5/FusedBatchNormV3/Offset", "op": "Const", "attr": {"dtype": {"type": "DT_FLOAT"}, "value": {"tensor": {"dtype": "DT_FLOAT", "tensorShape": {"dim": [{"size": "64"}]}}}}}, {"name": "StatefulPartitionedCall/center_net_resnet_feature_extractor/functional_3/batch_normalization_3/FusedBatchNormV3/Scaled", "op": "Const", "attr": {"value": {"tensor": {"dtype": "DT_FLOAT", "tensorShape": {"dim": [{"size": "128"}]}}}, "dtype": {"type": "DT_FLOAT"}}}, {"name": "StatefulPartitionedCall/center_net_resnet_feature_extractor/functional_3/batch_normalization_3/FusedBatchNormV3/Offset", "op": "Const", "attr": {"dtype": {"type": "DT_FLOAT"}, "value": {"tensor": {"dtype": "DT_FLOAT", "tensorShape": {"dim": [{"size": "128"}]}}}}}, {"name": "StatefulPartitionedCall/center_net_resnet_feature_extractor/functional_3/batch_normalization_1/FusedBatchNormV3/Scaled", "op": "Const", "attr": {"value": {"tensor": {"dtype": "DT_FLOAT", "tensorShape": {"dim": [{"size": "256"}]}}}, "dtype": {"type": "DT_FLOAT"}}}, {"name": "StatefulPartitionedCall/center_net_resnet_feature_extractor/functional_3/batch_normalization_1/FusedBatchNormV3/Offset", "op": "Const", "attr": {"value": {"tensor": {"dtype": "DT_FLOAT", "tensorShape": {"dim": [{"size": "256"}]}}}, "dtype": {"type": "DT_FLOAT"}}}, {"name": "StatefulPartitionedCall/center_net_resnet_feature_extractor/functional_3/functional_1/conv5_block3_preact_bn/FusedBatchNormV3/Scaled", "op": "Const", "attr": {"value": {"tensor": {"dtype": "DT_FLOAT", "tensorShape": {"dim": [{"size": "2048"}]}}}, "dtype": {"type": "DT_FLOAT"}}}, {"name": "StatefulPartitionedCall/center_net_resnet_feature_extractor/functional_3/functional_1/conv5_block3_preact_bn/FusedBatchNormV3/Offset", "op": "Const", "attr": {"value": {"tensor": {"dtype": "DT_FLOAT", "tensorShape": {"dim": [{"size": "2048"}]}}}, "dtype": {"type": "DT_FLOAT"}}}, {"name": "StatefulPartitionedCall/center_net_resnet_feature_extractor/functional_3/functional_1/conv5_block2_preact_bn/FusedBatchNormV3/Scaled", "op": "Const", "attr": {"dtype": {"type": "DT_FLOAT"}, "value": {"tensor": {"dtype": "DT_FLOAT", "tensorShape": {"dim": [{"size": "2048"}]}}}}}, {"name": "StatefulPartitionedCall/Assert_3/AssertGuard/StatefulPartitionedCall/Assert_3/Condition/_360", "op": "Switch", "input": ["StatefulPartitionedCall/Assert_3/Condition", "StatefulPartitionedCall/Assert_3/Condition"], "attr": {"T": {"type": "DT_BOOL"}}}, {"name": "StatefulPartitionedCall/Assert_2/AssertGuard/StatefulPartitionedCall/Assert_2/Condition/_351", "op": "Switch", "input": ["StatefulPartitionedCall/Assert_2/Condition", "StatefulPartitionedCall/Assert_2/Condition"], "attr": {"T": {"type": "DT_BOOL"}}}, {"name": "StatefulPartitionedCall/Assert_1/AssertGuard/StatefulPartitionedCall/Assert_1/Condition/_342", "op": "Switch", "input": ["StatefulPartitionedCall/Assert_1/Condition", "StatefulPartitionedCall/Assert_1/Condition"], "attr": {"T": {"type": "DT_BOOL"}}}, {"name": "StatefulPartitionedCall/Assert/AssertGuard/StatefulPartitionedCall/Assert/Condition/_333", "op": "Switch", "input": ["StatefulPartitionedCall/Assert/Condition", "StatefulPartitionedCall/Assert/Condition"], "attr": {"T": {"type": "DT_BOOL"}}}, {"name": "StatefulPartitionedCall/Assert/AssertGuard/switch_pred/_330", "op": "Switch", "input": ["StatefulPartitionedCall/Assert/Condition", "StatefulPartitionedCall/Assert/Condition"], "device": "/device:CPU:0", "attr": {"_PivotSwitch": {"b": true}, "T": {"type": "DT_BOOL"}}}, {"name": "StatefulPartitionedCall/Cast", "op": "Cast", "input": ["input_tensor"], "attr": {"Truncate": {"b": false}, "SrcT": {"type": "DT_UINT8"}, "DstT": {"type": "DT_FLOAT"}}}, {"name": "StatefulPartitionedCall/Assert/AssertGuard/pivot_f/_331", "op": "Identity", "input": ["StatefulPartitionedCall/Assert/AssertGuard/switch_pred/_330"], "attr": {"T": {"type": "DT_BOOL"}}}, {"name": "StatefulPartitionedCall/unstack", "op": "Unpack", "input": ["StatefulPartitionedCall/Cast"], "attr": {"axis": {"i": "0"}, "num": {"i": "1"}, "T": {"type": "DT_FLOAT"}}}, {"name": "Func/StatefulPartitionedCall/Assert/AssertGuard/else/_329/input/_387", "op": "Identity", "input": ["StatefulPartitionedCall/Assert/AssertGuard/StatefulPartitionedCall/Assert/Condition/_333", "^StatefulPartitionedCall/Assert/AssertGuard/pivot_f/_331"], "attr": {"T": {"type": "DT_BOOL"}}}, {"name": "StatefulPartitionedCall/ResizeToRange/Shape", "op": "Shape", "input": ["StatefulPartitionedCall/unstack"], "attr": {"out_type": {"type": "DT_INT32"}, "T": {"type": "DT_FLOAT"}}}, {"name": "StatefulPartitionedCall/ResizeToRange/Shape_1", "op": "Shape", "input": ["StatefulPartitionedCall/unstack"], "attr": {"T": {"type": "DT_FLOAT"}, "out_type": {"type": "DT_INT32"}}}, {"name": "StatefulPartitionedCall/ResizeToRange/strided_slice", "op": "StridedSlice", "input": ["StatefulPartitionedCall/ResizeToRange/Shape", "StatefulPartitionedCall/ResizeToRange/strided_slice/stack", "StatefulPartitionedCall/ResizeToRange/strided_slice/stack_1", "StatefulPartitionedCall/ResizeToRange/strided_slice/stack_2"], "attr": {"ellipsis_mask": {"i": "0"}, "begin_mask": {"i": "0"}, "new_axis_mask": {"i": "0"}, "end_mask": {"i": "0"}, "T": {"type": "DT_INT32"}, "shrink_axis_mask": {"i": "1"}, "Index": {"type": "DT_INT32"}}}, {"name": "StatefulPartitionedCall/ResizeToRange/strided_slice_1", "op": "StridedSlice", "input": ["StatefulPartitionedCall/ResizeToRange/Shape_1", "StatefulPartitionedCall/ResizeToRange/strided_slice_1/stack", "StatefulPartitionedCall/ResizeToRange/strided_slice_1/stack_1", "StatefulPartitionedCall/ResizeToRange/strided_slice_1/stack_2"], "attr": {"Index": {"type": "DT_INT32"}, "begin_mask": {"i": "0"}, "new_axis_mask": {"i": "0"}, "T": {"type": "DT_INT32"}, "ellipsis_mask": {"i": "0"}, "end_mask": {"i": "0"}, "shrink_axis_mask": {"i": "1"}}}, {"name": "StatefulPartitionedCall/ResizeToRange/Less", "op": "Less", "input": ["StatefulPartitionedCall/ResizeToRange/strided_slice", "StatefulPartitionedCall/ResizeToRange/strided_slice_1"], "attr": {"T": {"type": "DT_INT32"}}}, {"name": "StatefulPartitionedCall/ResizeToRange/cond/switch_pred/_322", "op": "Switch", "input": ["StatefulPartitionedCall/ResizeToRange/Less", "StatefulPartitionedCall/ResizeToRange/Less"], "device": "/device:CPU:0", "attr": {"T": {"type": "DT_BOOL"}, "_PivotSwitch": {"b": true}}}, {"name": "StatefulPartitionedCall/ResizeToRange/cond/StatefulPartitionedCall/unstack/_325", "op": "Switch", "input": ["StatefulPartitionedCall/unstack", "StatefulPartitionedCall/ResizeToRange/Less"], "attr": {"T": {"type": "DT_FLOAT"}}}, {"name": "StatefulPartitionedCall/ResizeToRange/cond/pivot_f/_323", "op": "Identity", "input": ["StatefulPartitionedCall/ResizeToRange/cond/switch_pred/_322"], "attr": {"T": {"type": "DT_BOOL"}}}, {"name": "StatefulPartitionedCall/ResizeToRange/cond/pivot_t/_324", "op": "Identity", "input": ["StatefulPartitionedCall/ResizeToRange/cond/switch_pred/_322:1"], "attr": {"T": {"type": "DT_BOOL"}}}, {"name": "StatefulPartitionedCall/ResizeToRange/cond/else/_321/ResizeToRange/cond/resize/Cast", "op": "Const", "input": ["^StatefulPartitionedCall/ResizeToRange/cond/pivot_f/_323"], "attr": {"dtype": {"type": "DT_FLOAT"}, "value": {"tensor": {"dtype": "DT_FLOAT", "tensorShape": {}}}}}, {"name": "StatefulPartitionedCall/ResizeToRange/cond/else/_321/ResizeToRange/cond/resize/Cast_2", "op": "Const", "input": ["^StatefulPartitionedCall/ResizeToRange/cond/pivot_f/_323"], "attr": {"value": {"tensor": {"dtype": "DT_FLOAT", "tensorShape": {}}}, "dtype": {"type": "DT_FLOAT"}}}, {"name": "StatefulPartitionedCall/ResizeToRange/cond/else/_321/ResizeToRange/cond/resize/ExpandDims/dim", "op": "Const", "input": ["^StatefulPartitionedCall/ResizeToRange/cond/pivot_f/_323"], "attr": {"value": {"tensor": {"dtype": "DT_INT32", "tensorShape": {}}}, "dtype": {"type": "DT_INT32"}}}, {"name": "StatefulPartitionedCall/ResizeToRange/cond/then/_320/ResizeToRange/cond/resize/Cast", "op": "Const", "input": ["^StatefulPartitionedCall/ResizeToRange/cond/pivot_t/_324"], "attr": {"value": {"tensor": {"dtype": "DT_FLOAT", "tensorShape": {}}}, "dtype": {"type": "DT_FLOAT"}}}, {"name": "StatefulPartitionedCall/ResizeToRange/cond/then/_320/ResizeToRange/cond/resize/Cast_2", "op": "Const", "input": ["^StatefulPartitionedCall/ResizeToRange/cond/pivot_t/_324"], "attr": {"value": {"tensor": {"dtype": "DT_FLOAT", "tensorShape": {}}}, "dtype": {"type": "DT_FLOAT"}}}, {"name": "StatefulPartitionedCall/ResizeToRange/cond/then/_320/ResizeToRange/cond/resize/ExpandDims/dim", "op": "Const", "input": ["^StatefulPartitionedCall/ResizeToRange/cond/pivot_t/_324"], "attr": {"value": {"tensor": {"dtype": "DT_INT32", "tensorShape": {}}}, "dtype": {"type": "DT_INT32"}}}, {"name": "StatefulPartitionedCall/ResizeToRange/cond/else/_321/ResizeToRange/cond/resize/ExpandDims", "op": "ExpandDims", "input": ["StatefulPartitionedCall/ResizeToRange/cond/StatefulPartitionedCall/unstack/_325", "StatefulPartitionedCall/ResizeToRange/cond/else/_321/ResizeToRange/cond/resize/ExpandDims/dim"], "attr": {"T": {"type": "DT_FLOAT"}, "Tdim": {"type": "DT_INT32"}}}, {"name": "StatefulPartitionedCall/ResizeToRange/cond/then/_320/ResizeToRange/cond/resize/ExpandDims", "op": "ExpandDims", "input": ["StatefulPartitionedCall/ResizeToRange/cond/StatefulPartitionedCall/unstack/_325:1", "StatefulPartitionedCall/ResizeToRange/cond/then/_320/ResizeToRange/cond/resize/ExpandDims/dim"], "attr": {"T": {"type": "DT_FLOAT"}, "Tdim": {"type": "DT_INT32"}}}, {"name": "StatefulPartitionedCall/ResizeToRange/cond/else/_321/ResizeToRange/cond/resize/Shape", "op": "Shape", "input": ["StatefulPartitionedCall/ResizeToRange/cond/else/_321/ResizeToRange/cond/resize/ExpandDims"], "attr": {"out_type": {"type": "DT_INT32"}, "T": {"type": "DT_FLOAT"}}}, {"name": "StatefulPartitionedCall/ResizeToRange/cond/then/_320/ResizeToRange/cond/resize/Shape", "op": "Shape", "input": ["StatefulPartitionedCall/ResizeToRange/cond/then/_320/ResizeToRange/cond/resize/ExpandDims"], "attr": {"out_type": {"type": "DT_INT32"}, "T": {"type": "DT_FLOAT"}}}, {"name": "StatefulPartitionedCall/ResizeToRange/cond/else/_321/ResizeToRange/cond/resize/unstack", "op": "Unpack", "input": ["StatefulPartitionedCall/ResizeToRange/cond/else/_321/ResizeToRange/cond/resize/Shape"], "attr": {"num": {"i": "4"}, "axis": {"i": "0"}, "T": {"type": "DT_INT32"}}}, {"name": "StatefulPartitionedCall/ResizeToRange/cond/then/_320/ResizeToRange/cond/resize/unstack", "op": "Unpack", "input": ["StatefulPartitionedCall/ResizeToRange/cond/then/_320/ResizeToRange/cond/resize/Shape"], "attr": {"axis": {"i": "0"}, "num": {"i": "4"}, "T": {"type": "DT_INT32"}}}, {"name": "StatefulPartitionedCall/ResizeToRange/cond/else/_321/ResizeToRange/cond/resize/Cast_4", "op": "Cast", "input": ["StatefulPartitionedCall/ResizeToRange/cond/else/_321/ResizeToRange/cond/resize/unstack:1"], "attr": {"Truncate": {"b": false}, "DstT": {"type": "DT_FLOAT"}, "SrcT": {"type": "DT_INT32"}}}, {"name": "StatefulPartitionedCall/ResizeToRange/cond/else/_321/ResizeToRange/cond/resize/Cast_1", "op": "Cast", "input": ["StatefulPartitionedCall/ResizeToRange/cond/else/_321/ResizeToRange/cond/resize/unstack:1"], "attr": {"Truncate": {"b": false}, "DstT": {"type": "DT_FLOAT"}, "SrcT": {"type": "DT_INT32"}}}, {"name": "StatefulPartitionedCall/ResizeToRange/cond/else/_321/ResizeToRange/cond/resize/Cast_3", "op": "Cast", "input": ["StatefulPartitionedCall/ResizeToRange/cond/else/_321/ResizeToRange/cond/resize/unstack:2"], "attr": {"SrcT": {"type": "DT_INT32"}, "DstT": {"type": "DT_FLOAT"}, "Truncate": {"b": false}}}, {"name": "StatefulPartitionedCall/ResizeToRange/cond/else/_321/ResizeToRange/cond/resize/Cast_6", "op": "Cast", "input": ["StatefulPartitionedCall/ResizeToRange/cond/else/_321/ResizeToRange/cond/resize/unstack:2"], "attr": {"DstT": {"type": "DT_FLOAT"}, "Truncate": {"b": false}, "SrcT": {"type": "DT_INT32"}}}, {"name": "StatefulPartitionedCall/ResizeToRange/cond/then/_320/ResizeToRange/cond/resize/Cast_4", "op": "Cast", "input": ["StatefulPartitionedCall/ResizeToRange/cond/then/_320/ResizeToRange/cond/resize/unstack:1"], "attr": {"DstT": {"type": "DT_FLOAT"}, "SrcT": {"type": "DT_INT32"}, "Truncate": {"b": false}}}, {"name": "StatefulPartitionedCall/ResizeToRange/cond/then/_320/ResizeToRange/cond/resize/Cast_1", "op": "Cast", "input": ["StatefulPartitionedCall/ResizeToRange/cond/then/_320/ResizeToRange/cond/resize/unstack:1"], "attr": {"DstT": {"type": "DT_FLOAT"}, "SrcT": {"type": "DT_INT32"}, "Truncate": {"b": false}}}, {"name": "StatefulPartitionedCall/ResizeToRange/cond/then/_320/ResizeToRange/cond/resize/Cast_3", "op": "Cast", "input": ["StatefulPartitionedCall/ResizeToRange/cond/then/_320/ResizeToRange/cond/resize/unstack:2"], "attr": {"SrcT": {"type": "DT_INT32"}, "DstT": {"type": "DT_FLOAT"}, "Truncate": {"b": false}}}, {"name": "StatefulPartitionedCall/ResizeToRange/cond/then/_320/ResizeToRange/cond/resize/Cast_6", "op": "Cast", "input": ["StatefulPartitionedCall/ResizeToRange/cond/then/_320/ResizeToRange/cond/resize/unstack:2"], "attr": {"Truncate": {"b": false}, "DstT": {"type": "DT_FLOAT"}, "SrcT": {"type": "DT_INT32"}}}, {"name": "StatefulPartitionedCall/ResizeToRange/cond/else/_321/ResizeToRange/cond/resize/truediv", "op": "RealDiv", "input": ["StatefulPartitionedCall/ResizeToRange/cond/else/_321/ResizeToRange/cond/resize/Cast", "StatefulPartitionedCall/ResizeToRange/cond/else/_321/ResizeToRange/cond/resize/Cast_1"], "attr": {"T": {"type": "DT_FLOAT"}}}, {"name": "StatefulPartitionedCall/ResizeToRange/cond/else/_321/ResizeToRange/cond/resize/truediv_1", "op": "RealDiv", "input": ["StatefulPartitionedCall/ResizeToRange/cond/else/_321/ResizeToRange/cond/resize/Cast_2", "StatefulPartitionedCall/ResizeToRange/cond/else/_321/ResizeToRange/cond/resize/Cast_3"], "attr": {"T": {"type": "DT_FLOAT"}}}, {"name": "StatefulPartitionedCall/ResizeToRange/cond/then/_320/ResizeToRange/cond/resize/truediv", "op": "RealDiv", "input": ["StatefulPartitionedCall/ResizeToRange/cond/then/_320/ResizeToRange/cond/resize/Cast", "StatefulPartitionedCall/ResizeToRange/cond/then/_320/ResizeToRange/cond/resize/Cast_1"], "attr": {"T": {"type": "DT_FLOAT"}}}, {"name": "StatefulPartitionedCall/ResizeToRange/cond/then/_320/ResizeToRange/cond/resize/truediv_1", "op": "RealDiv", "input": ["StatefulPartitionedCall/ResizeToRange/cond/then/_320/ResizeToRange/cond/resize/Cast_2", "StatefulPartitionedCall/ResizeToRange/cond/then/_320/ResizeToRange/cond/resize/Cast_3"], "attr": {"T": {"type": "DT_FLOAT"}}}, {"name": "StatefulPartitionedCall/ResizeToRange/cond/else/_321/ResizeToRange/cond/resize/Minimum", "op": "Minimum", "input": ["StatefulPartitionedCall/ResizeToRange/cond/else/_321/ResizeToRange/cond/resize/truediv", "StatefulPartitionedCall/ResizeToRange/cond/else/_321/ResizeToRange/cond/resize/truediv_1"], "attr": {"T": {"type": "DT_FLOAT"}}}, {"name": "StatefulPartitionedCall/ResizeToRange/cond/then/_320/ResizeToRange/cond/resize/Minimum", "op": "Minimum", "input": ["StatefulPartitionedCall/ResizeToRange/cond/then/_320/ResizeToRange/cond/resize/truediv", "StatefulPartitionedCall/ResizeToRange/cond/then/_320/ResizeToRange/cond/resize/truediv_1"], "attr": {"T": {"type": "DT_FLOAT"}}}, {"name": "StatefulPartitionedCall/ResizeToRange/cond/else/_321/ResizeToRange/cond/resize/mul", "op": "Mul", "input": ["StatefulPartitionedCall/ResizeToRange/cond/else/_321/ResizeToRange/cond/resize/Minimum", "StatefulPartitionedCall/ResizeToRange/cond/else/_321/ResizeToRange/cond/resize/Cast_4"], "attr": {"T": {"type": "DT_FLOAT"}}}, {"name": "StatefulPartitionedCall/ResizeToRange/cond/else/_321/ResizeToRange/cond/resize/mul_1", "op": "Mul", "input": ["StatefulPartitionedCall/ResizeToRange/cond/else/_321/ResizeToRange/cond/resize/Minimum", "StatefulPartitionedCall/ResizeToRange/cond/else/_321/ResizeToRange/cond/resize/Cast_6"], "attr": {"T": {"type": "DT_FLOAT"}}}, {"name": "StatefulPartitionedCall/ResizeToRange/cond/then/_320/ResizeToRange/cond/resize/mul", "op": "Mul", "input": ["StatefulPartitionedCall/ResizeToRange/cond/then/_320/ResizeToRange/cond/resize/Minimum", "StatefulPartitionedCall/ResizeToRange/cond/then/_320/ResizeToRange/cond/resize/Cast_4"], "attr": {"T": {"type": "DT_FLOAT"}}}, {"name": "StatefulPartitionedCall/ResizeToRange/cond/then/_320/ResizeToRange/cond/resize/mul_1", "op": "Mul", "input": ["StatefulPartitionedCall/ResizeToRange/cond/then/_320/ResizeToRange/cond/resize/Minimum", "StatefulPartitionedCall/ResizeToRange/cond/then/_320/ResizeToRange/cond/resize/Cast_6"], "attr": {"T": {"type": "DT_FLOAT"}}}, {"name": "StatefulPartitionedCall/ResizeToRange/cond/else/_321/ResizeToRange/cond/resize/Round", "op": "Round", "input": ["StatefulPartitionedCall/ResizeToRange/cond/else/_321/ResizeToRange/cond/resize/mul"], "attr": {"T": {"type": "DT_FLOAT"}}}, {"name": "StatefulPartitionedCall/ResizeToRange/cond/else/_321/ResizeToRange/cond/resize/Round_1", "op": "Round", "input": ["StatefulPartitionedCall/ResizeToRange/cond/else/_321/ResizeToRange/cond/resize/mul_1"], "attr": {"T": {"type": "DT_FLOAT"}}}, {"name": "StatefulPartitionedCall/ResizeToRange/cond/then/_320/ResizeToRange/cond/resize/Round", "op": "Round", "input": ["StatefulPartitionedCall/ResizeToRange/cond/then/_320/ResizeToRange/cond/resize/mul"], "attr": {"T": {"type": "DT_FLOAT"}}}, {"name": "StatefulPartitionedCall/ResizeToRange/cond/then/_320/ResizeToRange/cond/resize/Round_1", "op": "Round", "input": ["StatefulPartitionedCall/ResizeToRange/cond/then/_320/ResizeToRange/cond/resize/mul_1"], "attr": {"T": {"type": "DT_FLOAT"}}}, {"name": "StatefulPartitionedCall/ResizeToRange/cond/else/_321/ResizeToRange/cond/resize/Cast_5", "op": "Cast", "input": ["StatefulPartitionedCall/ResizeToRange/cond/else/_321/ResizeToRange/cond/resize/Round"], "attr": {"Truncate": {"b": false}, "DstT": {"type": "DT_INT32"}, "SrcT": {"type": "DT_FLOAT"}}}, {"name": "StatefulPartitionedCall/ResizeToRange/cond/else/_321/ResizeToRange/cond/resize/Cast_7", "op": "Cast", "input": ["StatefulPartitionedCall/ResizeToRange/cond/else/_321/ResizeToRange/cond/resize/Round_1"], "attr": {"SrcT": {"type": "DT_FLOAT"}, "DstT": {"type": "DT_INT32"}, "Truncate": {"b": false}}}, {"name": "StatefulPartitionedCall/ResizeToRange/cond/then/_320/ResizeToRange/cond/resize/Cast_5", "op": "Cast", "input": ["StatefulPartitionedCall/ResizeToRange/cond/then/_320/ResizeToRange/cond/resize/Round"], "attr": {"SrcT": {"type": "DT_FLOAT"}, "Truncate": {"b": false}, "DstT": {"type": "DT_INT32"}}}, {"name": "StatefulPartitionedCall/ResizeToRange/cond/then/_320/ResizeToRange/cond/resize/Cast_7", "op": "Cast", "input": ["StatefulPartitionedCall/ResizeToRange/cond/then/_320/ResizeToRange/cond/resize/Round_1"], "attr": {"Truncate": {"b": false}, "SrcT": {"type": "DT_FLOAT"}, "DstT": {"type": "DT_INT32"}}}, {"name": "StatefulPartitionedCall/ResizeToRange/cond/else/_321/ResizeToRange/cond/resize/size", "op": "Pack", "input": ["StatefulPartitionedCall/ResizeToRange/cond/else/_321/ResizeToRange/cond/resize/Cast_5", "StatefulPartitionedCall/ResizeToRange/cond/else/_321/ResizeToRange/cond/resize/Cast_7"], "attr": {"axis": {"i": "0"}, "T": {"type": "DT_INT32"}, "N": {"i": "2"}}}, {"name": "StatefulPartitionedCall/ResizeToRange/cond/then/_320/ResizeToRange/cond/resize/size", "op": "Pack", "input": ["StatefulPartitionedCall/ResizeToRange/cond/then/_320/ResizeToRange/cond/resize/Cast_5", "StatefulPartitionedCall/ResizeToRange/cond/then/_320/ResizeToRange/cond/resize/Cast_7"], "attr": {"axis": {"i": "0"}, "T": {"type": "DT_INT32"}, "N": {"i": "2"}}}, {"name": "StatefulPartitionedCall/ResizeToRange/cond/else/_321/ResizeToRange/cond/resize/ResizeBilinear", "op": "ResizeBilinear", "input": ["StatefulPartitionedCall/ResizeToRange/cond/else/_321/ResizeToRange/cond/resize/ExpandDims", "StatefulPartitionedCall/ResizeToRange/cond/else/_321/ResizeToRange/cond/resize/size"], "attr": {"T": {"type": "DT_FLOAT"}, "half_pixel_centers": {"b": false}, "align_corners": {"b": false}}}, {"name": "StatefulPartitionedCall/ResizeToRange/cond/then/_320/ResizeToRange/cond/resize/ResizeBilinear", "op": "ResizeBilinear", "input": ["StatefulPartitionedCall/ResizeToRange/cond/then/_320/ResizeToRange/cond/resize/ExpandDims", "StatefulPartitionedCall/ResizeToRange/cond/then/_320/ResizeToRange/cond/resize/size"], "attr": {"T": {"type": "DT_FLOAT"}, "half_pixel_centers": {"b": false}, "align_corners": {"b": false}}}, {"name": "StatefulPartitionedCall/ResizeToRange/cond/else/_321/ResizeToRange/cond/resize/Squeeze", "op": "Squeeze", "input": ["StatefulPartitionedCall/ResizeToRange/cond/else/_321/ResizeToRange/cond/resize/ResizeBilinear"], "attr": {"squeeze_dims": {"list": {"i": ["0"]}}, "T": {"type": "DT_FLOAT"}}}, {"name": "StatefulPartitionedCall/ResizeToRange/cond/then/_320/ResizeToRange/cond/resize/Squeeze", "op": "Squeeze", "input": ["StatefulPartitionedCall/ResizeToRange/cond/then/_320/ResizeToRange/cond/resize/ResizeBilinear"], "attr": {"T": {"type": "DT_FLOAT"}, "squeeze_dims": {"list": {"i": ["0"]}}}}, {"name": "StatefulPartitionedCall/ResizeToRange/cond/output/_326", "op": "Merge", "input": ["StatefulPartitionedCall/ResizeToRange/cond/then/_320/ResizeToRange/cond/resize/Squeeze", "StatefulPartitionedCall/ResizeToRange/cond/else/_321/ResizeToRange/cond/resize/Squeeze"], "attr": {"N": {"i": "2"}, "T": {"type": "DT_FLOAT"}}}, {"name": "StatefulPartitionedCall/ResizeToRange/unstack", "op": "Unpack", "input": ["StatefulPartitionedCall/ResizeToRange/cond/output/_326"], "attr": {"num": {"i": "3"}, "axis": {"i": "2"}, "T": {"type": "DT_FLOAT"}}}, {"name": "StatefulPartitionedCall/ResizeToRange/Shape_2", "op": "Shape", "input": ["StatefulPartitionedCall/ResizeToRange/cond/output/_326"], "attr": {"T": {"type": "DT_FLOAT"}, "out_type": {"type": "DT_INT32"}}}, {"name": "StatefulPartitionedCall/ResizeToRange/strided_slice_2", "op": "StridedSlice", "input": ["StatefulPartitionedCall/ResizeToRange/Shape_2", "StatefulPartitionedCall/ResizeToRange/strided_slice_2/stack", "StatefulPartitionedCall/ResizeToRange/strided_slice_2/stack_1", "StatefulPartitionedCall/ResizeToRange/strided_slice_2/stack_2"], "attr": {"end_mask": {"i": "0"}, "T": {"type": "DT_INT32"}, "Index": {"type": "DT_INT32"}, "begin_mask": {"i": "0"}, "ellipsis_mask": {"i": "0"}, "new_axis_mask": {"i": "0"}, "shrink_axis_mask": {"i": "1"}}}, {"name": "StatefulPartitionedCall/ResizeToRange/strided_slice_3", "op": "StridedSlice", "input": ["StatefulPartitionedCall/ResizeToRange/Shape_2", "StatefulPartitionedCall/ResizeToRange/strided_slice_3/stack", "StatefulPartitionedCall/ResizeToRange/strided_slice_3/stack_1", "StatefulPartitionedCall/ResizeToRange/strided_slice_3/stack_2"], "attr": {"new_axis_mask": {"i": "0"}, "ellipsis_mask": {"i": "0"}, "Index": {"type": "DT_INT32"}, "shrink_axis_mask": {"i": "1"}, "begin_mask": {"i": "0"}, "T": {"type": "DT_INT32"}, "end_mask": {"i": "0"}}}, {"name": "StatefulPartitionedCall/ResizeToRange/strided_slice_4", "op": "StridedSlice", "input": ["StatefulPartitionedCall/ResizeToRange/Shape_2", "StatefulPartitionedCall/ResizeToRange/strided_slice_4/stack", "StatefulPartitionedCall/ResizeToRange/strided_slice_4/stack_1", "StatefulPartitionedCall/ResizeToRange/strided_slice_4/stack_2"], "attr": {"ellipsis_mask": {"i": "0"}, "new_axis_mask": {"i": "0"}, "T": {"type": "DT_INT32"}, "Index": {"type": "DT_INT32"}, "begin_mask": {"i": "0"}, "shrink_axis_mask": {"i": "1"}, "end_mask": {"i": "0"}}}, {"name": "StatefulPartitionedCall/ResizeToRange/strided_slice_5", "op": "StridedSlice", "input": ["StatefulPartitionedCall/ResizeToRange/Shape_2", "StatefulPartitionedCall/ResizeToRange/strided_slice_5/stack", "StatefulPartitionedCall/ResizeToRange/strided_slice_5/stack_1", "StatefulPartitionedCall/ResizeToRange/strided_slice_5/stack_2"], "attr": {"T": {"type": "DT_INT32"}, "Index": {"type": "DT_INT32"}, "new_axis_mask": {"i": "0"}, "end_mask": {"i": "0"}, "ellipsis_mask": {"i": "0"}, "shrink_axis_mask": {"i": "1"}, "begin_mask": {"i": "0"}}}, {"name": "StatefulPartitionedCall/ResizeToRange/strided_slice_6", "op": "StridedSlice", "input": ["StatefulPartitionedCall/ResizeToRange/Shape_2", "StatefulPartitionedCall/ResizeToRange/strided_slice_6/stack", "StatefulPartitionedCall/ResizeToRange/strided_slice_6/stack_1", "StatefulPartitionedCall/ResizeToRange/strided_slice_6/stack_2"], "attr": {"begin_mask": {"i": "0"}, "new_axis_mask": {"i": "0"}, "Index": {"type": "DT_INT32"}, "shrink_axis_mask": {"i": "1"}, "T": {"type": "DT_INT32"}, "ellipsis_mask": {"i": "0"}, "end_mask": {"i": "0"}}}, {"name": "StatefulPartitionedCall/ResizeToRange/strided_slice_7", "op": "StridedSlice", "input": ["StatefulPartitionedCall/ResizeToRange/Shape_2", "StatefulPartitionedCall/ResizeToRange/strided_slice_7/stack", "StatefulPartitionedCall/ResizeToRange/strided_slice_7/stack_1", "StatefulPartitionedCall/ResizeToRange/strided_slice_7/stack_2"], "attr": {"ellipsis_mask": {"i": "0"}, "end_mask": {"i": "0"}, "T": {"type": "DT_INT32"}, "Index": {"type": "DT_INT32"}, "shrink_axis_mask": {"i": "1"}, "new_axis_mask": {"i": "0"}, "begin_mask": {"i": "0"}}}, {"name": "ConstantFolding/StatefulPartitionedCall/stack_1_const_axis", "op": "Const", "input": ["^StatefulPartitionedCall/ResizeToRange/Shape_2"], "attr": {"value": {"tensor": {"dtype": "DT_INT32", "tensorShape": {}}}, "dtype": {"type": "DT_INT32"}}}, {"name": "StatefulPartitionedCall/ResizeToRange/sub", "op": "Sub", "input": ["StatefulPartitionedCall/ResizeToRange/sub/x", "StatefulPartitionedCall/ResizeToRange/strided_slice_2"], "attr": {"T": {"type": "DT_INT32"}}}, {"name": "StatefulPartitionedCall/ResizeToRange/sub_1", "op": "Sub", "input": ["StatefulPartitionedCall/ResizeToRange/sub_1/x", "StatefulPartitionedCall/ResizeToRange/strided_slice_3"], "attr": {"T": {"type": "DT_INT32"}}}, {"name": "StatefulPartitionedCall/ResizeToRange/sub_2", "op": "Sub", "input": ["StatefulPartitionedCall/ResizeToRange/sub_2/x", "StatefulPartitionedCall/ResizeToRange/strided_slice_4"], "attr": {"T": {"type": "DT_INT32"}}}, {"name": "StatefulPartitionedCall/ResizeToRange/sub_3", "op": "Sub", "input": ["StatefulPartitionedCall/ResizeToRange/sub_3/x", "StatefulPartitionedCall/ResizeToRange/strided_slice_5"], "attr": {"T": {"type": "DT_INT32"}}}, {"name": "StatefulPartitionedCall/ResizeToRange/sub_4", "op": "Sub", "input": ["StatefulPartitionedCall/ResizeToRange/sub_4/x", "StatefulPartitionedCall/ResizeToRange/strided_slice_6"], "attr": {"T": {"type": "DT_INT32"}}}, {"name": "StatefulPartitionedCall/ResizeToRange/sub_5", "op": "Sub", "input": ["StatefulPartitionedCall/ResizeToRange/sub_5/x", "StatefulPartitionedCall/ResizeToRange/strided_slice_7"], "attr": {"T": {"type": "DT_INT32"}}}, {"name": "StatefulPartitionedCall/stack_1", "op": "ExpandDims", "input": ["StatefulPartitionedCall/ResizeToRange/Shape_2", "ConstantFolding/StatefulPartitionedCall/stack_1_const_axis"], "attr": {"T": {"type": "DT_INT32"}, "Tdim": {"type": "DT_INT32"}}}, {"name": "StatefulPartitionedCall/ResizeToRange/Pad/paddings/0", "op": "Pack", "input": ["StatefulPartitionedCall/ResizeToRange/Pad/paddings/0/0", "StatefulPartitionedCall/ResizeToRange/sub"], "attr": {"N": {"i": "2"}, "T": {"type": "DT_INT32"}, "axis": {"i": "0"}}}, {"name": "StatefulPartitionedCall/ResizeToRange/Pad/paddings/1", "op": "Pack", "input": ["StatefulPartitionedCall/ResizeToRange/Pad/paddings/1/0", "StatefulPartitionedCall/ResizeToRange/sub_1"], "attr": {"T": {"type": "DT_INT32"}, "N": {"i": "2"}, "axis": {"i": "0"}}}, {"name": "StatefulPartitionedCall/ResizeToRange/Pad_1/paddings/0", "op": "Pack", "input": ["StatefulPartitionedCall/ResizeToRange/Pad_1/paddings/0/0", "StatefulPartitionedCall/ResizeToRange/sub_2"], "attr": {"axis": {"i": "0"}, "T": {"type": "DT_INT32"}, "N": {"i": "2"}}}, {"name": "StatefulPartitionedCall/ResizeToRange/Pad_1/paddings/1", "op": "Pack", "input": ["StatefulPartitionedCall/ResizeToRange/Pad_1/paddings/1/0", "StatefulPartitionedCall/ResizeToRange/sub_3"], "attr": {"axis": {"i": "0"}, "N": {"i": "2"}, "T": {"type": "DT_INT32"}}}, {"name": "StatefulPartitionedCall/ResizeToRange/Pad_2/paddings/0", "op": "Pack", "input": ["StatefulPartitionedCall/ResizeToRange/Pad_2/paddings/0/0", "StatefulPartitionedCall/ResizeToRange/sub_4"], "attr": {"axis": {"i": "0"}, "T": {"type": "DT_INT32"}, "N": {"i": "2"}}}, {"name": "StatefulPartitionedCall/ResizeToRange/Pad_2/paddings/1", "op": "Pack", "input": ["StatefulPartitionedCall/ResizeToRange/Pad_2/paddings/1/0", "StatefulPartitionedCall/ResizeToRange/sub_5"], "attr": {"T": {"type": "DT_INT32"}, "N": {"i": "2"}, "axis": {"i": "0"}}}, {"name": "StatefulPartitionedCall/unstack_4", "op": "Unpack", "input": ["StatefulPartitionedCall/stack_1"], "attr": {"axis": {"i": "1"}, "num": {"i": "3"}, "T": {"type": "DT_INT32"}}}, {"name": "StatefulPartitionedCall/ResizeToRange/Pad/paddings", "op": "Pack", "input": ["StatefulPartitionedCall/ResizeToRange/Pad/paddings/0", "StatefulPartitionedCall/ResizeToRange/Pad/paddings/1"], "attr": {"N": {"i": "2"}, "axis": {"i": "0"}, "T": {"type": "DT_INT32"}}}, {"name": "StatefulPartitionedCall/ResizeToRange/Pad_1/paddings", "op": "Pack", "input": ["StatefulPartitionedCall/ResizeToRange/Pad_1/paddings/0", "StatefulPartitionedCall/ResizeToRange/Pad_1/paddings/1"], "attr": {"N": {"i": "2"}, "axis": {"i": "0"}, "T": {"type": "DT_INT32"}}}, {"name": "StatefulPartitionedCall/ResizeToRange/Pad_2/paddings", "op": "Pack", "input": ["StatefulPartitionedCall/ResizeToRange/Pad_2/paddings/0", "StatefulPartitionedCall/ResizeToRange/Pad_2/paddings/1"], "attr": {"N": {"i": "2"}, "T": {"type": "DT_INT32"}, "axis": {"i": "0"}}}, {"name": "StatefulPartitionedCall/unstack_5", "op": "Unpack", "input": ["StatefulPartitionedCall/unstack_4"], "attr": {"axis": {"i": "0"}, "T": {"type": "DT_INT32"}, "num": {"i": "1"}}}, {"name": "StatefulPartitionedCall/unstack_6", "op": "Unpack", "input": ["StatefulPartitionedCall/unstack_4:1"], "attr": {"num": {"i": "1"}, "T": {"type": "DT_INT32"}, "axis": {"i": "0"}}}, {"name": "StatefulPartitionedCall/ResizeToRange/Pad", "op": "Pad", "input": ["StatefulPartitionedCall/ResizeToRange/unstack", "StatefulPartitionedCall/ResizeToRange/Pad/paddings"], "attr": {"Tpaddings": {"type": "DT_INT32"}, "T": {"type": "DT_FLOAT"}}}, {"name": "StatefulPartitionedCall/ResizeToRange/Pad_1", "op": "Pad", "input": ["StatefulPartitionedCall/ResizeToRange/unstack:1", "StatefulPartitionedCall/ResizeToRange/Pad_1/paddings"], "attr": {"T": {"type": "DT_FLOAT"}, "Tpaddings": {"type": "DT_INT32"}}}, {"name": "StatefulPartitionedCall/ResizeToRange/Pad_2", "op": "Pad", "input": ["StatefulPartitionedCall/ResizeToRange/unstack:2", "StatefulPartitionedCall/ResizeToRange/Pad_2/paddings"], "attr": {"T": {"type": "DT_FLOAT"}, "Tpaddings": {"type": "DT_INT32"}}}, {"name": "StatefulPartitionedCall/ToNormalizedCoordinates/Cast", "op": "Cast", "input": ["StatefulPartitionedCall/unstack_5"], "attr": {"SrcT": {"type": "DT_INT32"}, "Truncate": {"b": false}, "DstT": {"type": "DT_FLOAT"}}}, {"name": "StatefulPartitionedCall/ToNormalizedCoordinates/Cast_1", "op": "Cast", "input": ["StatefulPartitionedCall/unstack_6"], "attr": {"Truncate": {"b": false}, "SrcT": {"type": "DT_INT32"}, "DstT": {"type": "DT_FLOAT"}}}, {"name": "StatefulPartitionedCall/ResizeToRange/stack", "op": "Pack", "input": ["StatefulPartitionedCall/ResizeToRange/Pad", "StatefulPartitionedCall/ResizeToRange/Pad_1", "StatefulPartitionedCall/ResizeToRange/Pad_2"], "attr": {"T": {"type": "DT_FLOAT"}, "axis": {"i": "2"}, "N": {"i": "3"}}}, {"name": "StatefulPartitionedCall/ToNormalizedCoordinates/truediv", "op": "Reciprocal", "input": ["StatefulPartitionedCall/ToNormalizedCoordinates/Cast"], "attr": {"T": {"type": "DT_FLOAT"}}}, {"name": "ConstantFolding/StatefulPartitionedCall/stack_const_axis", "op": "Const", "input": ["^StatefulPartitionedCall/ResizeToRange/stack"], "attr": {"dtype": {"type": "DT_INT32"}, "value": {"tensor": {"dtype": "DT_INT32", "tensorShape": {}}}}}, {"name": "StatefulPartitionedCall/stack", "op": "ExpandDims", "input": ["StatefulPartitionedCall/ResizeToRange/stack", "ConstantFolding/StatefulPartitionedCall/stack_const_axis"], "attr": {"T": {"type": "DT_FLOAT"}, "Tdim": {"type": "DT_INT32"}}}, {"name": "StatefulPartitionedCall/truediv_1", "op": "Mul", "input": ["StatefulPartitionedCall/stack", "ConstantFolding/StatefulPartitionedCall/truediv_1_recip"], "attr": {"T": {"type": "DT_FLOAT"}}}, {"name": "StatefulPartitionedCall/sub_1", "op": "Sub", "input": ["StatefulPartitionedCall/truediv_1", "StatefulPartitionedCall/sub_1/y"], "attr": {"T": {"type": "DT_FLOAT"}}}, {"name": "StatefulPartitionedCall/center_net_resnet_feature_extractor/functional_3/functional_1/conv1_pad/Pad", "op": "Pad", "input": ["StatefulPartitionedCall/sub_1", "StatefulPartitionedCall/center_net_resnet_feature_extractor/functional_3/functional_1/conv1_pad/Pad/paddings"], "attr": {"T": {"type": "DT_FLOAT"}, "Tpaddings": {"type": "DT_INT32"}}}, {"name": "StatefulPartitionedCall/center_net_resnet_feature_extractor/functional_3/functional_1/conv1_conv/BiasAdd", "op": "_FusedConv2D", "input": ["StatefulPartitionedCall/center_net_resnet_feature_extractor/functional_3/functional_1/conv1_pad/Pad", "unknown", "unknown_0"], "device": "/device:CPU:0", "attr": {"T": {"type": "DT_FLOAT"}, "epsilon": {"f": 0.0}, "padding": {"s": "VkFMSUQ="}, "explicit_paddings": {"list": {}}, "num_args": {"i": "1"}, "dilations": {"list": {"i": ["1", "1", "1", "1"]}}, "fused_ops": {"list": {"s": ["Qmlhc0FkZA=="]}}, "strides": {"list": {"i": ["1", "2", "2", "1"]}}, "data_format": {"s": "TkhXQw=="}, "use_cudnn_on_gpu": {"b": true}}}, {"name": "StatefulPartitionedCall/center_net_resnet_feature_extractor/functional_3/functional_1/pool1_pad/Pad", "op": "Pad", "input": ["StatefulPartitionedCall/center_net_resnet_feature_extractor/functional_3/functional_1/conv1_conv/BiasAdd", "StatefulPartitionedCall/center_net_resnet_feature_extractor/functional_3/functional_1/pool1_pad/Pad/paddings"], "attr": {"Tpaddings": {"type": "DT_INT32"}, "T": {"type": "DT_FLOAT"}}}, {"name": "StatefulPartitionedCall/center_net_resnet_feature_extractor/functional_3/functional_1/pool1_pool/MaxPool", "op": "MaxPool", "input": ["StatefulPartitionedCall/center_net_resnet_feature_extractor/functional_3/functional_1/pool1_pad/Pad"], "attr": {"padding": {"s": "VkFMSUQ="}, "strides": {"list": {"i": ["1", "2", "2", "1"]}}, "ksize": {"list": {"i": ["1", "3", "3", "1"]}}, "T": {"type": "DT_FLOAT"}, "explicit_paddings": {"list": {}}, "data_format": {"s": "TkhXQw=="}}}, {"name": "StatefulPartitionedCall/center_net_resnet_feature_extractor/functional_3/functional_1/conv2_block1_preact_bn/FusedBatchNormV3/Mul", "op": "Mul", "input": ["StatefulPartitionedCall/center_net_resnet_feature_extractor/functional_3/functional_1/pool1_pool/MaxPool", "StatefulPartitionedCall/center_net_resnet_feature_extractor/functional_3/functional_1/conv2_block1_preact_bn/FusedBatchNormV3/Scaled"], "attr": {"T": {"type": "DT_FLOAT"}}}, {"name": "StatefulPartitionedCall/center_net_resnet_feature_extractor/functional_3/functional_1/conv2_block1_preact_bn/FusedBatchNormV3", "op": "Add", "input": ["StatefulPartitionedCall/center_net_resnet_feature_extractor/functional_3/functional_1/conv2_block1_preact_bn/FusedBatchNormV3/Mul", "StatefulPartitionedCall/center_net_resnet_feature_extractor/functional_3/functional_1/conv2_block1_preact_bn/FusedBatchNormV3/Offset"], "attr": {"T": {"type": "DT_FLOAT"}}}, {"name": "StatefulPartitionedCall/center_net_resnet_feature_extractor/functional_3/functional_1/conv2_block1_preact_relu/Relu", "op": "Relu", "input": ["StatefulPartitionedCall/center_net_resnet_feature_extractor/functional_3/functional_1/conv2_block1_preact_bn/FusedBatchNormV3"], "attr": {"T": {"type": "DT_FLOAT"}}}, {"name": "StatefulPartitionedCall/center_net_resnet_feature_extractor/functional_3/functional_1/conv2_block1_0_conv/BiasAdd", "op": "_FusedConv2D", "input": ["StatefulPartitionedCall/center_net_resnet_feature_extractor/functional_3/functional_1/conv2_block1_preact_relu/Relu", "unknown_15", "unknown_16"], "device": "/device:CPU:0", "attr": {"use_cudnn_on_gpu": {"b": true}, "fused_ops": {"list": {"s": ["Qmlhc0FkZA=="]}}, "explicit_paddings": {"list": {}}, "padding": {"s": "VkFMSUQ="}, "T": {"type": "DT_FLOAT"}, "dilations": {"list": {"i": ["1", "1", "1", "1"]}}, "epsilon": {"f": 0.0}, "data_format": {"s": "TkhXQw=="}, "num_args": {"i": "1"}, "strides": {"list": {"i": ["1", "1", "1", "1"]}}}}, {"name": "StatefulPartitionedCall/center_net_resnet_feature_extractor/functional_3/functional_1/conv2_block1_1_relu/Relu", "op": "_FusedConv2D", "input": ["StatefulPartitionedCall/center_net_resnet_feature_extractor/functional_3/functional_1/conv2_block1_preact_relu/Relu", "StatefulPartitionedCall/center_net_resnet_feature_extractor/functional_3/functional_1/conv2_block1_1_conv/Conv2D_weights", "StatefulPartitionedCall/center_net_resnet_feature_extractor/functional_3/functional_1/conv2_block1_1_conv/Conv2D_bn_offset"], "device": "/device:CPU:0", "attr": {"num_args": {"i": "1"}, "strides": {"list": {"i": ["1", "1", "1", "1"]}}, "explicit_paddings": {"list": {}}, "data_format": {"s": "TkhXQw=="}, "dilations": {"list": {"i": ["1", "1", "1", "1"]}}, "T": {"type": "DT_FLOAT"}, "padding": {"s": "VkFMSUQ="}, "use_cudnn_on_gpu": {"b": true}, "fused_ops": {"list": {"s": ["Qmlhc0FkZA==", "UmVsdQ=="]}}, "epsilon": {"f": 0.0}}}, {"name": "StatefulPartitionedCall/center_net_resnet_feature_extractor/functional_3/functional_1/conv2_block1_2_pad/Pad", "op": "Pad", "input": ["StatefulPartitionedCall/center_net_resnet_feature_extractor/functional_3/functional_1/conv2_block1_1_relu/Relu", "StatefulPartitionedCall/center_net_resnet_feature_extractor/functional_3/functional_1/conv2_block1_2_pad/Pad/paddings"], "attr": {"T": {"type": "DT_FLOAT"}, "Tpaddings": {"type": "DT_INT32"}}}, {"name": "StatefulPartitionedCall/center_net_resnet_feature_extractor/functional_3/functional_1/conv2_block1_2_relu/Relu", "op": "_FusedConv2D", "input": ["StatefulPartitionedCall/center_net_resnet_feature_extractor/functional_3/functional_1/conv2_block1_2_pad/Pad", "StatefulPartitionedCall/center_net_resnet_feature_extractor/functional_3/functional_1/conv2_block1_2_conv/Conv2D_weights", "StatefulPartitionedCall/center_net_resnet_feature_extractor/functional_3/functional_1/conv2_block1_2_conv/Conv2D_bn_offset"], "device": "/device:CPU:0", "attr": {"dilations": {"list": {"i": ["1", "1", "1", "1"]}}, "fused_ops": {"list": {"s": ["Qmlhc0FkZA==", "UmVsdQ=="]}}, "num_args": {"i": "1"}, "padding": {"s": "VkFMSUQ="}, "use_cudnn_on_gpu": {"b": true}, "epsilon": {"f": 0.0}, "T": {"type": "DT_FLOAT"}, "explicit_paddings": {"list": {}}, "data_format": {"s": "TkhXQw=="}, "strides": {"list": {"i": ["1", "1", "1", "1"]}}}}, {"name": "StatefulPartitionedCall/center_net_resnet_feature_extractor/functional_3/functional_1/conv2_block1_3_conv/BiasAdd", "op": "_FusedConv2D", "input": ["StatefulPartitionedCall/center_net_resnet_feature_extractor/functional_3/functional_1/conv2_block1_2_relu/Relu", "unknown_17", "unknown_18"], "device": "/device:CPU:0", "attr": {"fused_ops": {"list": {"s": ["Qmlhc0FkZA=="]}}, "epsilon": {"f": 0.0}, "strides": {"list": {"i": ["1", "1", "1", "1"]}}, "data_format": {"s": "TkhXQw=="}, "num_args": {"i": "1"}, "dilations": {"list": {"i": ["1", "1", "1", "1"]}}, "padding": {"s": "VkFMSUQ="}, "explicit_paddings": {"list": {}}, "use_cudnn_on_gpu": {"b": true}, "T": {"type": "DT_FLOAT"}}}, {"name": "StatefulPartitionedCall/center_net_resnet_feature_extractor/functional_3/functional_1/conv2_block1_out/add", "op": "AddV2", "input": ["StatefulPartitionedCall/center_net_resnet_feature_extractor/functional_3/functional_1/conv2_block1_0_conv/BiasAdd", "StatefulPartitionedCall/center_net_resnet_feature_extractor/functional_3/functional_1/conv2_block1_3_conv/BiasAdd"], "attr": {"T": {"type": "DT_FLOAT"}}}, {"name": "StatefulPartitionedCall/center_net_resnet_feature_extractor/functional_3/functional_1/conv2_block2_preact_bn/FusedBatchNormV3/Mul", "op": "Mul", "input": ["StatefulPartitionedCall/center_net_resnet_feature_extractor/functional_3/functional_1/conv2_block1_out/add", "StatefulPartitionedCall/center_net_resnet_feature_extractor/functional_3/functional_1/conv2_block2_preact_bn/FusedBatchNormV3/Scaled"], "attr": {"T": {"type": "DT_FLOAT"}}}, {"name": "StatefulPartitionedCall/center_net_resnet_feature_extractor/functional_3/functional_1/conv2_block2_preact_bn/FusedBatchNormV3", "op": "Add", "input": ["StatefulPartitionedCall/center_net_resnet_feature_extractor/functional_3/functional_1/conv2_block2_preact_bn/FusedBatchNormV3/Mul", "StatefulPartitionedCall/center_net_resnet_feature_extractor/functional_3/functional_1/conv2_block2_preact_bn/FusedBatchNormV3/Offset"], "attr": {"T": {"type": "DT_FLOAT"}}}, {"name": "StatefulPartitionedCall/center_net_resnet_feature_extractor/functional_3/functional_1/conv2_block2_preact_relu/Relu", "op": "Relu", "input": ["StatefulPartitionedCall/center_net_resnet_feature_extractor/functional_3/functional_1/conv2_block2_preact_bn/FusedBatchNormV3"], "attr": {"T": {"type": "DT_FLOAT"}}}, {"name": "StatefulPartitionedCall/center_net_resnet_feature_extractor/functional_3/functional_1/conv2_block2_1_relu/Relu", "op": "_FusedConv2D", "input": ["StatefulPartitionedCall/center_net_resnet_feature_extractor/functional_3/functional_1/conv2_block2_preact_relu/Relu", "StatefulPartitionedCall/center_net_resnet_feature_extractor/functional_3/functional_1/conv2_block2_1_conv/Conv2D_weights", "StatefulPartitionedCall/center_net_resnet_feature_extractor/functional_3/functional_1/conv2_block2_1_conv/Conv2D_bn_offset"], "device": "/device:CPU:0", "attr": {"T": {"type": "DT_FLOAT"}, "use_cudnn_on_gpu": {"b": true}, "dilations": {"list": {"i": ["1", "1", "1", "1"]}}, "data_format": {"s": "TkhXQw=="}, "num_args": {"i": "1"}, "explicit_paddings": {"list": {}}, "padding": {"s": "VkFMSUQ="}, "epsilon": {"f": 0.0}, "strides": {"list": {"i": ["1", "1", "1", "1"]}}, "fused_ops": {"list": {"s": ["Qmlhc0FkZA==", "UmVsdQ=="]}}}}, {"name": "StatefulPartitionedCall/center_net_resnet_feature_extractor/functional_3/functional_1/conv2_block2_2_pad/Pad", "op": "Pad", "input": ["StatefulPartitionedCall/center_net_resnet_feature_extractor/functional_3/functional_1/conv2_block2_1_relu/Relu", "StatefulPartitionedCall/center_net_resnet_feature_extractor/functional_3/functional_1/conv2_block2_2_pad/Pad/paddings"], "attr": {"T": {"type": "DT_FLOAT"}, "Tpaddings": {"type": "DT_INT32"}}}, {"name": "StatefulPartitionedCall/center_net_resnet_feature_extractor/functional_3/functional_1/conv2_block2_2_relu/Relu", "op": "_FusedConv2D", "input": ["StatefulPartitionedCall/center_net_resnet_feature_extractor/functional_3/functional_1/conv2_block2_2_pad/Pad", "StatefulPartitionedCall/center_net_resnet_feature_extractor/functional_3/functional_1/conv2_block2_2_conv/Conv2D_weights", "StatefulPartitionedCall/center_net_resnet_feature_extractor/functional_3/functional_1/conv2_block2_2_conv/Conv2D_bn_offset"], "device": "/device:CPU:0", "attr": {"strides": {"list": {"i": ["1", "1", "1", "1"]}}, "num_args": {"i": "1"}, "epsilon": {"f": 0.0}, "fused_ops": {"list": {"s": ["Qmlhc0FkZA==", "UmVsdQ=="]}}, "data_format": {"s": "TkhXQw=="}, "use_cudnn_on_gpu": {"b": true}, "T": {"type": "DT_FLOAT"}, "explicit_paddings": {"list": {}}, "padding": {"s": "VkFMSUQ="}, "dilations": {"list": {"i": ["1", "1", "1", "1"]}}}}, {"name": "StatefulPartitionedCall/center_net_resnet_feature_extractor/functional_3/functional_1/conv2_block2_3_conv/BiasAdd", "op": "_FusedConv2D", "input": ["StatefulPartitionedCall/center_net_resnet_feature_extractor/functional_3/functional_1/conv2_block2_2_relu/Relu", "unknown_33", "unknown_34"], "device": "/device:CPU:0", "attr": {"use_cudnn_on_gpu": {"b": true}, "num_args": {"i": "1"}, "padding": {"s": "VkFMSUQ="}, "strides": {"list": {"i": ["1", "1", "1", "1"]}}, "epsilon": {"f": 0.0}, "T": {"type": "DT_FLOAT"}, "data_format": {"s": "TkhXQw=="}, "fused_ops": {"list": {"s": ["Qmlhc0FkZA=="]}}, "explicit_paddings": {"list": {}}, "dilations": {"list": {"i": ["1", "1", "1", "1"]}}}}, {"name": "StatefulPartitionedCall/center_net_resnet_feature_extractor/functional_3/functional_1/conv2_block2_out/add", "op": "AddV2", "input": ["StatefulPartitionedCall/center_net_resnet_feature_extractor/functional_3/functional_1/conv2_block1_out/add", "StatefulPartitionedCall/center_net_resnet_feature_extractor/functional_3/functional_1/conv2_block2_3_conv/BiasAdd"], "attr": {"T": {"type": "DT_FLOAT"}}}, {"name": "StatefulPartitionedCall/center_net_resnet_feature_extractor/functional_3/functional_1/max_pooling2d/MaxPool", "op": "MaxPool", "input": ["StatefulPartitionedCall/center_net_resnet_feature_extractor/functional_3/functional_1/conv2_block2_out/add"], "attr": {"ksize": {"list": {"i": ["1", "1", "1", "1"]}}, "T": {"type": "DT_FLOAT"}, "padding": {"s": "VkFMSUQ="}, "data_format": {"s": "TkhXQw=="}, "strides": {"list": {"i": ["1", "2", "2", "1"]}}, "explicit_paddings": {"list": {}}}}, {"name": "StatefulPartitionedCall/center_net_resnet_feature_extractor/functional_3/functional_1/conv2_block3_preact_bn/FusedBatchNormV3/Mul", "op": "Mul", "input": ["StatefulPartitionedCall/center_net_resnet_feature_extractor/functional_3/functional_1/conv2_block2_out/add", "StatefulPartitionedCall/center_net_resnet_feature_extractor/functional_3/functional_1/conv2_block3_preact_bn/FusedBatchNormV3/Scaled"], "attr": {"T": {"type": "DT_FLOAT"}}}, {"name": "StatefulPartitionedCall/center_net_resnet_feature_extractor/functional_3/functional_1/conv2_block3_preact_bn/FusedBatchNormV3", "op": "Add", "input": ["StatefulPartitionedCall/center_net_resnet_feature_extractor/functional_3/functional_1/conv2_block3_preact_bn/FusedBatchNormV3/Mul", "StatefulPartitionedCall/center_net_resnet_feature_extractor/functional_3/functional_1/conv2_block3_preact_bn/FusedBatchNormV3/Offset"], "attr": {"T": {"type": "DT_FLOAT"}}}, {"name": "StatefulPartitionedCall/center_net_resnet_feature_extractor/functional_3/functional_1/conv2_block3_preact_relu/Relu", "op": "Relu", "input": ["StatefulPartitionedCall/center_net_resnet_feature_extractor/functional_3/functional_1/conv2_block3_preact_bn/FusedBatchNormV3"], "attr": {"T": {"type": "DT_FLOAT"}}}, {"name": "StatefulPartitionedCall/center_net_resnet_feature_extractor/functional_3/functional_1/conv2_block3_1_relu/Relu", "op": "_FusedConv2D", "input": ["StatefulPartitionedCall/center_net_resnet_feature_extractor/functional_3/functional_1/conv2_block3_preact_relu/Relu", "StatefulPartitionedCall/center_net_resnet_feature_extractor/functional_3/functional_1/conv2_block3_1_conv/Conv2D_weights", "StatefulPartitionedCall/center_net_resnet_feature_extractor/functional_3/functional_1/conv2_block3_1_conv/Conv2D_bn_offset"], "device": "/device:CPU:0", "attr": {"num_args": {"i": "1"}, "dilations": {"list": {"i": ["1", "1", "1", "1"]}}, "padding": {"s": "VkFMSUQ="}, "data_format": {"s": "TkhXQw=="}, "epsilon": {"f": 0.0}, "explicit_paddings": {"list": {}}, "use_cudnn_on_gpu": {"b": true}, "strides": {"list": {"i": ["1", "1", "1", "1"]}}, "T": {"type": "DT_FLOAT"}, "fused_ops": {"list": {"s": ["Qmlhc0FkZA==", "UmVsdQ=="]}}}}, {"name": "StatefulPartitionedCall/center_net_resnet_feature_extractor/functional_3/functional_1/conv2_block3_2_pad/Pad", "op": "Pad", "input": ["StatefulPartitionedCall/center_net_resnet_feature_extractor/functional_3/functional_1/conv2_block3_1_relu/Relu", "StatefulPartitionedCall/center_net_resnet_feature_extractor/functional_3/functional_1/conv2_block3_2_pad/Pad/paddings"], "attr": {"Tpaddings": {"type": "DT_INT32"}, "T": {"type": "DT_FLOAT"}}}, {"name": "StatefulPartitionedCall/center_net_resnet_feature_extractor/functional_3/functional_1/conv2_block3_2_relu/Relu", "op": "_FusedConv2D", "input": ["StatefulPartitionedCall/center_net_resnet_feature_extractor/functional_3/functional_1/conv2_block3_2_pad/Pad", "StatefulPartitionedCall/center_net_resnet_feature_extractor/functional_3/functional_1/conv2_block3_2_conv/Conv2D_weights", "StatefulPartitionedCall/center_net_resnet_feature_extractor/functional_3/functional_1/conv2_block3_2_conv/Conv2D_bn_offset"], "device": "/device:CPU:0", "attr": {"explicit_paddings": {"list": {}}, "fused_ops": {"list": {"s": ["Qmlhc0FkZA==", "UmVsdQ=="]}}, "num_args": {"i": "1"}, "data_format": {"s": "TkhXQw=="}, "epsilon": {"f": 0.0}, "T": {"type": "DT_FLOAT"}, "strides": {"list": {"i": ["1", "2", "2", "1"]}}, "dilations": {"list": {"i": ["1", "1", "1", "1"]}}, "padding": {"s": "VkFMSUQ="}, "use_cudnn_on_gpu": {"b": true}}}, {"name": "StatefulPartitionedCall/center_net_resnet_feature_extractor/functional_3/functional_1/conv2_block3_3_conv/BiasAdd", "op": "_FusedConv2D", "input": ["StatefulPartitionedCall/center_net_resnet_feature_extractor/functional_3/functional_1/conv2_block3_2_relu/Relu", "unknown_49", "unknown_50"], "device": "/device:CPU:0", "attr": {"num_args": {"i": "1"}, "explicit_paddings": {"list": {}}, "dilations": {"list": {"i": ["1", "1", "1", "1"]}}, "use_cudnn_on_gpu": {"b": true}, "T": {"type": "DT_FLOAT"}, "fused_ops": {"list": {"s": ["Qmlhc0FkZA=="]}}, "data_format": {"s": "TkhXQw=="}, "strides": {"list": {"i": ["1", "1", "1", "1"]}}, "epsilon": {"f": 0.0}, "padding": {"s": "VkFMSUQ="}}}, {"name": "StatefulPartitionedCall/center_net_resnet_feature_extractor/functional_3/functional_1/conv2_block3_out/add", "op": "AddV2", "input": ["StatefulPartitionedCall/center_net_resnet_feature_extractor/functional_3/functional_1/max_pooling2d/MaxPool", "StatefulPartitionedCall/center_net_resnet_feature_extractor/functional_3/functional_1/conv2_block3_3_conv/BiasAdd"], "attr": {"T": {"type": "DT_FLOAT"}}}, {"name": "StatefulPartitionedCall/center_net_resnet_feature_extractor/functional_3/functional_1/conv3_block1_preact_bn/FusedBatchNormV3/Mul", "op": "Mul", "input": ["StatefulPartitionedCall/center_net_resnet_feature_extractor/functional_3/functional_1/conv2_block3_out/add", "StatefulPartitionedCall/center_net_resnet_feature_extractor/functional_3/functional_1/conv3_block1_preact_bn/FusedBatchNormV3/Scaled"], "attr": {"T": {"type": "DT_FLOAT"}}}, {"name": "StatefulPartitionedCall/center_net_resnet_feature_extractor/functional_3/functional_1/conv3_block1_preact_bn/FusedBatchNormV3", "op": "Add", "input": ["StatefulPartitionedCall/center_net_resnet_feature_extractor/functional_3/functional_1/conv3_block1_preact_bn/FusedBatchNormV3/Mul", "StatefulPartitionedCall/center_net_resnet_feature_extractor/functional_3/functional_1/conv3_block1_preact_bn/FusedBatchNormV3/Offset"], "attr": {"T": {"type": "DT_FLOAT"}}}, {"name": "StatefulPartitionedCall/center_net_resnet_feature_extractor/functional_3/functional_1/conv3_block1_preact_relu/Relu", "op": "Relu", "input": ["StatefulPartitionedCall/center_net_resnet_feature_extractor/functional_3/functional_1/conv3_block1_preact_bn/FusedBatchNormV3"], "attr": {"T": {"type": "DT_FLOAT"}}}, {"name": "StatefulPartitionedCall/center_net_resnet_feature_extractor/functional_3/functional_1/conv3_block1_0_conv/BiasAdd", "op": "_FusedConv2D", "input": ["StatefulPartitionedCall/center_net_resnet_feature_extractor/functional_3/functional_1/conv3_block1_preact_relu/Relu", "unknown_65", "unknown_66"], "device": "/device:CPU:0", "attr": {"strides": {"list": {"i": ["1", "1", "1", "1"]}}, "num_args": {"i": "1"}, "T": {"type": "DT_FLOAT"}, "explicit_paddings": {"list": {}}, "data_format": {"s": "TkhXQw=="}, "epsilon": {"f": 0.0}, "padding": {"s": "VkFMSUQ="}, "dilations": {"list": {"i": ["1", "1", "1", "1"]}}, "use_cudnn_on_gpu": {"b": true}, "fused_ops": {"list": {"s": ["Qmlhc0FkZA=="]}}}}, {"name": "StatefulPartitionedCall/center_net_resnet_feature_extractor/functional_3/functional_1/conv3_block1_1_relu/Relu", "op": "_FusedConv2D", "input": ["StatefulPartitionedCall/center_net_resnet_feature_extractor/functional_3/functional_1/conv3_block1_preact_relu/Relu", "StatefulPartitionedCall/center_net_resnet_feature_extractor/functional_3/functional_1/conv3_block1_1_conv/Conv2D_weights", "StatefulPartitionedCall/center_net_resnet_feature_extractor/functional_3/functional_1/conv3_block1_1_conv/Conv2D_bn_offset"], "device": "/device:CPU:0", "attr": {"fused_ops": {"list": {"s": ["Qmlhc0FkZA==", "UmVsdQ=="]}}, "dilations": {"list": {"i": ["1", "1", "1", "1"]}}, "padding": {"s": "VkFMSUQ="}, "T": {"type": "DT_FLOAT"}, "use_cudnn_on_gpu": {"b": true}, "explicit_paddings": {"list": {}}, "strides": {"list": {"i": ["1", "1", "1", "1"]}}, "num_args": {"i": "1"}, "data_format": {"s": "TkhXQw=="}, "epsilon": {"f": 0.0}}}, {"name": "StatefulPartitionedCall/center_net_resnet_feature_extractor/functional_3/functional_1/conv3_block1_2_pad/Pad", "op": "Pad", "input": ["StatefulPartitionedCall/center_net_resnet_feature_extractor/functional_3/functional_1/conv3_block1_1_relu/Relu", "StatefulPartitionedCall/center_net_resnet_feature_extractor/functional_3/functional_1/conv3_block1_2_pad/Pad/paddings"], "attr": {"Tpaddings": {"type": "DT_INT32"}, "T": {"type": "DT_FLOAT"}}}, {"name": "StatefulPartitionedCall/center_net_resnet_feature_extractor/functional_3/functional_1/conv3_block1_2_relu/Relu", "op": "_FusedConv2D", "input": ["StatefulPartitionedCall/center_net_resnet_feature_extractor/functional_3/functional_1/conv3_block1_2_pad/Pad", "StatefulPartitionedCall/center_net_resnet_feature_extractor/functional_3/functional_1/conv3_block1_2_conv/Conv2D_weights", "StatefulPartitionedCall/center_net_resnet_feature_extractor/functional_3/functional_1/conv3_block1_2_conv/Conv2D_bn_offset"], "device": "/device:CPU:0", "attr": {"strides": {"list": {"i": ["1", "1", "1", "1"]}}, "epsilon": {"f": 0.0}, "T": {"type": "DT_FLOAT"}, "data_format": {"s": "TkhXQw=="}, "num_args": {"i": "1"}, "fused_ops": {"list": {"s": ["Qmlhc0FkZA==", "UmVsdQ=="]}}, "explicit_paddings": {"list": {}}, "use_cudnn_on_gpu": {"b": true}, "dilations": {"list": {"i": ["1", "1", "1", "1"]}}, "padding": {"s": "VkFMSUQ="}}}, {"name": "StatefulPartitionedCall/center_net_resnet_feature_extractor/functional_3/functional_1/conv3_block1_3_conv/BiasAdd", "op": "_FusedConv2D", "input": ["StatefulPartitionedCall/center_net_resnet_feature_extractor/functional_3/functional_1/conv3_block1_2_relu/Relu", "unknown_67", "unknown_68"], "device": "/device:CPU:0", "attr": {"T": {"type": "DT_FLOAT"}, "data_format": {"s": "TkhXQw=="}, "explicit_paddings": {"list": {}}, "num_args": {"i": "1"}, "use_cudnn_on_gpu": {"b": true}, "epsilon": {"f": 0.0}, "fused_ops": {"list": {"s": ["Qmlhc0FkZA=="]}}, "strides": {"list": {"i": ["1", "1", "1", "1"]}}, "padding": {"s": "VkFMSUQ="}, "dilations": {"list": {"i": ["1", "1", "1", "1"]}}}}, {"name": "StatefulPartitionedCall/center_net_resnet_feature_extractor/functional_3/functional_1/conv3_block1_out/add", "op": "AddV2", "input": ["StatefulPartitionedCall/center_net_resnet_feature_extractor/functional_3/functional_1/conv3_block1_0_conv/BiasAdd", "StatefulPartitionedCall/center_net_resnet_feature_extractor/functional_3/functional_1/conv3_block1_3_conv/BiasAdd"], "attr": {"T": {"type": "DT_FLOAT"}}}, {"name": "StatefulPartitionedCall/center_net_resnet_feature_extractor/functional_3/functional_1/conv3_block2_preact_bn/FusedBatchNormV3/Mul", "op": "Mul", "input": ["StatefulPartitionedCall/center_net_resnet_feature_extractor/functional_3/functional_1/conv3_block1_out/add", "StatefulPartitionedCall/center_net_resnet_feature_extractor/functional_3/functional_1/conv3_block2_preact_bn/FusedBatchNormV3/Scaled"], "attr": {"T": {"type": "DT_FLOAT"}}}, {"name": "StatefulPartitionedCall/center_net_resnet_feature_extractor/functional_3/functional_1/conv3_block2_preact_bn/FusedBatchNormV3", "op": "Add", "input": ["StatefulPartitionedCall/center_net_resnet_feature_extractor/functional_3/functional_1/conv3_block2_preact_bn/FusedBatchNormV3/Mul", "StatefulPartitionedCall/center_net_resnet_feature_extractor/functional_3/functional_1/conv3_block2_preact_bn/FusedBatchNormV3/Offset"], "attr": {"T": {"type": "DT_FLOAT"}}}, {"name": "StatefulPartitionedCall/center_net_resnet_feature_extractor/functional_3/functional_1/conv3_block2_preact_relu/Relu", "op": "Relu", "input": ["StatefulPartitionedCall/center_net_resnet_feature_extractor/functional_3/functional_1/conv3_block2_preact_bn/FusedBatchNormV3"], "attr": {"T": {"type": "DT_FLOAT"}}}, {"name": "StatefulPartitionedCall/center_net_resnet_feature_extractor/functional_3/functional_1/conv3_block2_1_relu/Relu", "op": "_FusedConv2D", "input": ["StatefulPartitionedCall/center_net_resnet_feature_extractor/functional_3/functional_1/conv3_block2_preact_relu/Relu", "StatefulPartitionedCall/center_net_resnet_feature_extractor/functional_3/functional_1/conv3_block2_1_conv/Conv2D_weights", "StatefulPartitionedCall/center_net_resnet_feature_extractor/functional_3/functional_1/conv3_block2_1_conv/Conv2D_bn_offset"], "device": "/device:CPU:0", "attr": {"use_cudnn_on_gpu": {"b": true}, "fused_ops": {"list": {"s": ["Qmlhc0FkZA==", "UmVsdQ=="]}}, "dilations": {"list": {"i": ["1", "1", "1", "1"]}}, "explicit_paddings": {"list": {}}, "T": {"type": "DT_FLOAT"}, "epsilon": {"f": 0.0}, "data_format": {"s": "TkhXQw=="}, "strides": {"list": {"i": ["1", "1", "1", "1"]}}, "padding": {"s": "VkFMSUQ="}, "num_args": {"i": "1"}}}, {"name": "StatefulPartitionedCall/center_net_resnet_feature_extractor/functional_3/functional_1/conv3_block2_2_pad/Pad", "op": "Pad", "input": ["StatefulPartitionedCall/center_net_resnet_feature_extractor/functional_3/functional_1/conv3_block2_1_relu/Relu", "StatefulPartitionedCall/center_net_resnet_feature_extractor/functional_3/functional_1/conv3_block2_2_pad/Pad/paddings"], "attr": {"T": {"type": "DT_FLOAT"}, "Tpaddings": {"type": "DT_INT32"}}}, {"name": "StatefulPartitionedCall/center_net_resnet_feature_extractor/functional_3/functional_1/conv3_block2_2_relu/Relu", "op": "_FusedConv2D", "input": ["StatefulPartitionedCall/center_net_resnet_feature_extractor/functional_3/functional_1/conv3_block2_2_pad/Pad", "StatefulPartitionedCall/center_net_resnet_feature_extractor/functional_3/functional_1/conv3_block2_2_conv/Conv2D_weights", "StatefulPartitionedCall/center_net_resnet_feature_extractor/functional_3/functional_1/conv3_block2_2_conv/Conv2D_bn_offset"], "device": "/device:CPU:0", "attr": {"use_cudnn_on_gpu": {"b": true}, "explicit_paddings": {"list": {}}, "strides": {"list": {"i": ["1", "1", "1", "1"]}}, "data_format": {"s": "TkhXQw=="}, "T": {"type": "DT_FLOAT"}, "dilations": {"list": {"i": ["1", "1", "1", "1"]}}, "padding": {"s": "VkFMSUQ="}, "fused_ops": {"list": {"s": ["Qmlhc0FkZA==", "UmVsdQ=="]}}, "epsilon": {"f": 0.0}, "num_args": {"i": "1"}}}, {"name": "StatefulPartitionedCall/center_net_resnet_feature_extractor/functional_3/functional_1/conv3_block2_3_conv/BiasAdd", "op": "_FusedConv2D", "input": ["StatefulPartitionedCall/center_net_resnet_feature_extractor/functional_3/functional_1/conv3_block2_2_relu/Relu", "unknown_83", "unknown_84"], "device": "/device:CPU:0", "attr": {"fused_ops": {"list": {"s": ["Qmlhc0FkZA=="]}}, "num_args": {"i": "1"}, "explicit_paddings": {"list": {}}, "epsilon": {"f": 0.0}, "T": {"type": "DT_FLOAT"}, "dilations": {"list": {"i": ["1", "1", "1", "1"]}}, "padding": {"s": "VkFMSUQ="}, "use_cudnn_on_gpu": {"b": true}, "data_format": {"s": "TkhXQw=="}, "strides": {"list": {"i": ["1", "1", "1", "1"]}}}}, {"name": "StatefulPartitionedCall/center_net_resnet_feature_extractor/functional_3/functional_1/conv3_block2_out/add", "op": "AddV2", "input": ["StatefulPartitionedCall/center_net_resnet_feature_extractor/functional_3/functional_1/conv3_block1_out/add", "StatefulPartitionedCall/center_net_resnet_feature_extractor/functional_3/functional_1/conv3_block2_3_conv/BiasAdd"], "attr": {"T": {"type": "DT_FLOAT"}}}, {"name": "StatefulPartitionedCall/center_net_resnet_feature_extractor/functional_3/functional_1/conv3_block3_preact_bn/FusedBatchNormV3/Mul", "op": "Mul", "input": ["StatefulPartitionedCall/center_net_resnet_feature_extractor/functional_3/functional_1/conv3_block2_out/add", "StatefulPartitionedCall/center_net_resnet_feature_extractor/functional_3/functional_1/conv3_block3_preact_bn/FusedBatchNormV3/Scaled"], "attr": {"T": {"type": "DT_FLOAT"}}}, {"name": "StatefulPartitionedCall/center_net_resnet_feature_extractor/functional_3/functional_1/conv3_block3_preact_bn/FusedBatchNormV3", "op": "Add", "input": ["StatefulPartitionedCall/center_net_resnet_feature_extractor/functional_3/functional_1/conv3_block3_preact_bn/FusedBatchNormV3/Mul", "StatefulPartitionedCall/center_net_resnet_feature_extractor/functional_3/functional_1/conv3_block3_preact_bn/FusedBatchNormV3/Offset"], "attr": {"T": {"type": "DT_FLOAT"}}}, {"name": "StatefulPartitionedCall/center_net_resnet_feature_extractor/functional_3/functional_1/conv3_block3_preact_relu/Relu", "op": "Relu", "input": ["StatefulPartitionedCall/center_net_resnet_feature_extractor/functional_3/functional_1/conv3_block3_preact_bn/FusedBatchNormV3"], "attr": {"T": {"type": "DT_FLOAT"}}}, {"name": "StatefulPartitionedCall/center_net_resnet_feature_extractor/functional_3/functional_1/conv3_block3_1_relu/Relu", "op": "_FusedConv2D", "input": ["StatefulPartitionedCall/center_net_resnet_feature_extractor/functional_3/functional_1/conv3_block3_preact_relu/Relu", "StatefulPartitionedCall/center_net_resnet_feature_extractor/functional_3/functional_1/conv3_block3_1_conv/Conv2D_weights", "StatefulPartitionedCall/center_net_resnet_feature_extractor/functional_3/functional_1/conv3_block3_1_conv/Conv2D_bn_offset"], "device": "/device:CPU:0", "attr": {"num_args": {"i": "1"}, "strides": {"list": {"i": ["1", "1", "1", "1"]}}, "epsilon": {"f": 0.0}, "T": {"type": "DT_FLOAT"}, "explicit_paddings": {"list": {}}, "padding": {"s": "VkFMSUQ="}, "dilations": {"list": {"i": ["1", "1", "1", "1"]}}, "data_format": {"s": "TkhXQw=="}, "fused_ops": {"list": {"s": ["Qmlhc0FkZA==", "UmVsdQ=="]}}, "use_cudnn_on_gpu": {"b": true}}}, {"name": "StatefulPartitionedCall/center_net_resnet_feature_extractor/functional_3/functional_1/conv3_block3_2_pad/Pad", "op": "Pad", "input": ["StatefulPartitionedCall/center_net_resnet_feature_extractor/functional_3/functional_1/conv3_block3_1_relu/Relu", "StatefulPartitionedCall/center_net_resnet_feature_extractor/functional_3/functional_1/conv3_block3_2_pad/Pad/paddings"], "attr": {"Tpaddings": {"type": "DT_INT32"}, "T": {"type": "DT_FLOAT"}}}, {"name": "StatefulPartitionedCall/center_net_resnet_feature_extractor/functional_3/functional_1/conv3_block3_2_relu/Relu", "op": "_FusedConv2D", "input": ["StatefulPartitionedCall/center_net_resnet_feature_extractor/functional_3/functional_1/conv3_block3_2_pad/Pad", "StatefulPartitionedCall/center_net_resnet_feature_extractor/functional_3/functional_1/conv3_block3_2_conv/Conv2D_weights", "StatefulPartitionedCall/center_net_resnet_feature_extractor/functional_3/functional_1/conv3_block3_2_conv/Conv2D_bn_offset"], "device": "/device:CPU:0", "attr": {"use_cudnn_on_gpu": {"b": true}, "data_format": {"s": "TkhXQw=="}, "strides": {"list": {"i": ["1", "1", "1", "1"]}}, "fused_ops": {"list": {"s": ["Qmlhc0FkZA==", "UmVsdQ=="]}}, "epsilon": {"f": 0.0}, "padding": {"s": "VkFMSUQ="}, "dilations": {"list": {"i": ["1", "1", "1", "1"]}}, "T": {"type": "DT_FLOAT"}, "num_args": {"i": "1"}, "explicit_paddings": {"list": {}}}}, {"name": "StatefulPartitionedCall/center_net_resnet_feature_extractor/functional_3/functional_1/conv3_block3_3_conv/BiasAdd", "op": "_FusedConv2D", "input": ["StatefulPartitionedCall/center_net_resnet_feature_extractor/functional_3/functional_1/conv3_block3_2_relu/Relu", "unknown_99", "unknown_100"], "device": "/device:CPU:0", "attr": {"T": {"type": "DT_FLOAT"}, "explicit_paddings": {"list": {}}, "use_cudnn_on_gpu": {"b": true}, "strides": {"list": {"i": ["1", "1", "1", "1"]}}, "data_format": {"s": "TkhXQw=="}, "epsilon": {"f": 0.0}, "num_args": {"i": "1"}, "dilations": {"list": {"i": ["1", "1", "1", "1"]}}, "padding": {"s": "VkFMSUQ="}, "fused_ops": {"list": {"s": ["Qmlhc0FkZA=="]}}}}, {"name": "StatefulPartitionedCall/center_net_resnet_feature_extractor/functional_3/functional_1/conv3_block3_out/add", "op": "AddV2", "input": ["StatefulPartitionedCall/center_net_resnet_feature_extractor/functional_3/functional_1/conv3_block2_out/add", "StatefulPartitionedCall/center_net_resnet_feature_extractor/functional_3/functional_1/conv3_block3_3_conv/BiasAdd"], "attr": {"T": {"type": "DT_FLOAT"}}}, {"name": "StatefulPartitionedCall/center_net_resnet_feature_extractor/functional_3/functional_1/max_pooling2d_1/MaxPool", "op": "MaxPool", "input": ["StatefulPartitionedCall/center_net_resnet_feature_extractor/functional_3/functional_1/conv3_block3_out/add"], "attr": {"data_format": {"s": "TkhXQw=="}, "ksize": {"list": {"i": ["1", "1", "1", "1"]}}, "T": {"type": "DT_FLOAT"}, "strides": {"list": {"i": ["1", "2", "2", "1"]}}, "padding": {"s": "VkFMSUQ="}, "explicit_paddings": {"list": {}}}}, {"name": "StatefulPartitionedCall/center_net_resnet_feature_extractor/functional_3/functional_1/conv3_block4_preact_bn/FusedBatchNormV3/Mul", "op": "Mul", "input": ["StatefulPartitionedCall/center_net_resnet_feature_extractor/functional_3/functional_1/conv3_block3_out/add", "StatefulPartitionedCall/center_net_resnet_feature_extractor/functional_3/functional_1/conv3_block4_preact_bn/FusedBatchNormV3/Scaled"], "attr": {"T": {"type": "DT_FLOAT"}}}, {"name": "StatefulPartitionedCall/center_net_resnet_feature_extractor/functional_3/functional_1/conv3_block4_preact_bn/FusedBatchNormV3", "op": "Add", "input": ["StatefulPartitionedCall/center_net_resnet_feature_extractor/functional_3/functional_1/conv3_block4_preact_bn/FusedBatchNormV3/Mul", "StatefulPartitionedCall/center_net_resnet_feature_extractor/functional_3/functional_1/conv3_block4_preact_bn/FusedBatchNormV3/Offset"], "attr": {"T": {"type": "DT_FLOAT"}}}, {"name": "StatefulPartitionedCall/center_net_resnet_feature_extractor/functional_3/functional_1/conv3_block4_preact_relu/Relu", "op": "Relu", "input": ["StatefulPartitionedCall/center_net_resnet_feature_extractor/functional_3/functional_1/conv3_block4_preact_bn/FusedBatchNormV3"], "attr": {"T": {"type": "DT_FLOAT"}}}, {"name": "StatefulPartitionedCall/center_net_resnet_feature_extractor/functional_3/functional_1/conv3_block4_1_relu/Relu", "op": "_FusedConv2D", "input": ["StatefulPartitionedCall/center_net_resnet_feature_extractor/functional_3/functional_1/conv3_block4_preact_relu/Relu", "StatefulPartitionedCall/center_net_resnet_feature_extractor/functional_3/functional_1/conv3_block4_1_conv/Conv2D_weights", "StatefulPartitionedCall/center_net_resnet_feature_extractor/functional_3/functional_1/conv3_block4_1_conv/Conv2D_bn_offset"], "device": "/device:CPU:0", "attr": {"padding": {"s": "VkFMSUQ="}, "epsilon": {"f": 0.0}, "num_args": {"i": "1"}, "dilations": {"list": {"i": ["1", "1", "1", "1"]}}, "data_format": {"s": "TkhXQw=="}, "strides": {"list": {"i": ["1", "1", "1", "1"]}}, "fused_ops": {"list": {"s": ["Qmlhc0FkZA==", "UmVsdQ=="]}}, "use_cudnn_on_gpu": {"b": true}, "T": {"type": "DT_FLOAT"}, "explicit_paddings": {"list": {}}}}, {"name": "StatefulPartitionedCall/center_net_resnet_feature_extractor/functional_3/functional_1/conv3_block4_2_pad/Pad", "op": "Pad", "input": ["StatefulPartitionedCall/center_net_resnet_feature_extractor/functional_3/functional_1/conv3_block4_1_relu/Relu", "StatefulPartitionedCall/center_net_resnet_feature_extractor/functional_3/functional_1/conv3_block4_2_pad/Pad/paddings"], "attr": {"Tpaddings": {"type": "DT_INT32"}, "T": {"type": "DT_FLOAT"}}}, {"name": "StatefulPartitionedCall/center_net_resnet_feature_extractor/functional_3/functional_1/conv3_block4_2_relu/Relu", "op": "_FusedConv2D", "input": ["StatefulPartitionedCall/center_net_resnet_feature_extractor/functional_3/functional_1/conv3_block4_2_pad/Pad", "StatefulPartitionedCall/center_net_resnet_feature_extractor/functional_3/functional_1/conv3_block4_2_conv/Conv2D_weights", "StatefulPartitionedCall/center_net_resnet_feature_extractor/functional_3/functional_1/conv3_block4_2_conv/Conv2D_bn_offset"], "device": "/device:CPU:0", "attr": {"dilations": {"list": {"i": ["1", "1", "1", "1"]}}, "data_format": {"s": "TkhXQw=="}, "T": {"type": "DT_FLOAT"}, "strides": {"list": {"i": ["1", "2", "2", "1"]}}, "num_args": {"i": "1"}, "padding": {"s": "VkFMSUQ="}, "epsilon": {"f": 0.0}, "fused_ops": {"list": {"s": ["Qmlhc0FkZA==", "UmVsdQ=="]}}, "explicit_paddings": {"list": {}}, "use_cudnn_on_gpu": {"b": true}}}, {"name": "StatefulPartitionedCall/center_net_resnet_feature_extractor/functional_3/functional_1/conv3_block4_3_conv/BiasAdd", "op": "_FusedConv2D", "input": ["StatefulPartitionedCall/center_net_resnet_feature_extractor/functional_3/functional_1/conv3_block4_2_relu/Relu", "unknown_115", "unknown_116"], "device": "/device:CPU:0", "attr": {"dilations": {"list": {"i": ["1", "1", "1", "1"]}}, "epsilon": {"f": 0.0}, "num_args": {"i": "1"}, "padding": {"s": "VkFMSUQ="}, "data_format": {"s": "TkhXQw=="}, "strides": {"list": {"i": ["1", "1", "1", "1"]}}, "fused_ops": {"list": {"s": ["Qmlhc0FkZA=="]}}, "use_cudnn_on_gpu": {"b": true}, "explicit_paddings": {"list": {}}, "T": {"type": "DT_FLOAT"}}}, {"name": "StatefulPartitionedCall/center_net_resnet_feature_extractor/functional_3/functional_1/conv3_block4_out/add", "op": "AddV2", "input": ["StatefulPartitionedCall/center_net_resnet_feature_extractor/functional_3/functional_1/max_pooling2d_1/MaxPool", "StatefulPartitionedCall/center_net_resnet_feature_extractor/functional_3/functional_1/conv3_block4_3_conv/BiasAdd"], "attr": {"T": {"type": "DT_FLOAT"}}}, {"name": "StatefulPartitionedCall/center_net_resnet_feature_extractor/functional_3/functional_1/conv4_block1_preact_bn/FusedBatchNormV3/Mul", "op": "Mul", "input": ["StatefulPartitionedCall/center_net_resnet_feature_extractor/functional_3/functional_1/conv3_block4_out/add", "StatefulPartitionedCall/center_net_resnet_feature_extractor/functional_3/functional_1/conv4_block1_preact_bn/FusedBatchNormV3/Scaled"], "attr": {"T": {"type": "DT_FLOAT"}}}, {"name": "StatefulPartitionedCall/center_net_resnet_feature_extractor/functional_3/functional_1/conv4_block1_preact_bn/FusedBatchNormV3", "op": "Add", "input": ["StatefulPartitionedCall/center_net_resnet_feature_extractor/functional_3/functional_1/conv4_block1_preact_bn/FusedBatchNormV3/Mul", "StatefulPartitionedCall/center_net_resnet_feature_extractor/functional_3/functional_1/conv4_block1_preact_bn/FusedBatchNormV3/Offset"], "attr": {"T": {"type": "DT_FLOAT"}}}, {"name": "StatefulPartitionedCall/center_net_resnet_feature_extractor/functional_3/functional_1/conv4_block1_preact_relu/Relu", "op": "Relu", "input": ["StatefulPartitionedCall/center_net_resnet_feature_extractor/functional_3/functional_1/conv4_block1_preact_bn/FusedBatchNormV3"], "attr": {"T": {"type": "DT_FLOAT"}}}, {"name": "StatefulPartitionedCall/center_net_resnet_feature_extractor/functional_3/functional_1/conv4_block1_0_conv/BiasAdd", "op": "_FusedConv2D", "input": ["StatefulPartitionedCall/center_net_resnet_feature_extractor/functional_3/functional_1/conv4_block1_preact_relu/Relu", "unknown_131", "unknown_132"], "device": "/device:CPU:0", "attr": {"data_format": {"s": "TkhXQw=="}, "T": {"type": "DT_FLOAT"}, "dilations": {"list": {"i": ["1", "1", "1", "1"]}}, "fused_ops": {"list": {"s": ["Qmlhc0FkZA=="]}}, "explicit_paddings": {"list": {}}, "use_cudnn_on_gpu": {"b": true}, "epsilon": {"f": 0.0}, "strides": {"list": {"i": ["1", "1", "1", "1"]}}, "padding": {"s": "VkFMSUQ="}, "num_args": {"i": "1"}}}, {"name": "StatefulPartitionedCall/center_net_resnet_feature_extractor/functional_3/functional_1/conv4_block1_1_relu/Relu", "op": "_FusedConv2D", "input": ["StatefulPartitionedCall/center_net_resnet_feature_extractor/functional_3/functional_1/conv4_block1_preact_relu/Relu", "StatefulPartitionedCall/center_net_resnet_feature_extractor/functional_3/functional_1/conv4_block1_1_conv/Conv2D_weights", "StatefulPartitionedCall/center_net_resnet_feature_extractor/functional_3/functional_1/conv4_block1_1_conv/Conv2D_bn_offset"], "device": "/device:CPU:0", "attr": {"use_cudnn_on_gpu": {"b": true}, "fused_ops": {"list": {"s": ["Qmlhc0FkZA==", "UmVsdQ=="]}}, "T": {"type": "DT_FLOAT"}, "epsilon": {"f": 0.0}, "num_args": {"i": "1"}, "dilations": {"list": {"i": ["1", "1", "1", "1"]}}, "padding": {"s": "VkFMSUQ="}, "strides": {"list": {"i": ["1", "1", "1", "1"]}}, "explicit_paddings": {"list": {}}, "data_format": {"s": "TkhXQw=="}}}, {"name": "StatefulPartitionedCall/center_net_resnet_feature_extractor/functional_3/functional_1/conv4_block1_2_pad/Pad", "op": "Pad", "input": ["StatefulPartitionedCall/center_net_resnet_feature_extractor/functional_3/functional_1/conv4_block1_1_relu/Relu", "StatefulPartitionedCall/center_net_resnet_feature_extractor/functional_3/functional_1/conv4_block1_2_pad/Pad/paddings"], "attr": {"T": {"type": "DT_FLOAT"}, "Tpaddings": {"type": "DT_INT32"}}}, {"name": "StatefulPartitionedCall/center_net_resnet_feature_extractor/functional_3/functional_1/conv4_block1_2_relu/Relu", "op": "_FusedConv2D", "input": ["StatefulPartitionedCall/center_net_resnet_feature_extractor/functional_3/functional_1/conv4_block1_2_pad/Pad", "StatefulPartitionedCall/center_net_resnet_feature_extractor/functional_3/functional_1/conv4_block1_2_conv/Conv2D_weights", "StatefulPartitionedCall/center_net_resnet_feature_extractor/functional_3/functional_1/conv4_block1_2_conv/Conv2D_bn_offset"], "device": "/device:CPU:0", "attr": {"data_format": {"s": "TkhXQw=="}, "use_cudnn_on_gpu": {"b": true}, "padding": {"s": "VkFMSUQ="}, "dilations": {"list": {"i": ["1", "1", "1", "1"]}}, "epsilon": {"f": 0.0}, "explicit_paddings": {"list": {}}, "T": {"type": "DT_FLOAT"}, "fused_ops": {"list": {"s": ["Qmlhc0FkZA==", "UmVsdQ=="]}}, "strides": {"list": {"i": ["1", "1", "1", "1"]}}, "num_args": {"i": "1"}}}, {"name": "StatefulPartitionedCall/center_net_resnet_feature_extractor/functional_3/functional_1/conv4_block1_3_conv/BiasAdd", "op": "_FusedConv2D", "input": ["StatefulPartitionedCall/center_net_resnet_feature_extractor/functional_3/functional_1/conv4_block1_2_relu/Relu", "unknown_133", "unknown_134"], "device": "/device:CPU:0", "attr": {"epsilon": {"f": 0.0}, "num_args": {"i": "1"}, "data_format": {"s": "TkhXQw=="}, "T": {"type": "DT_FLOAT"}, "fused_ops": {"list": {"s": ["Qmlhc0FkZA=="]}}, "strides": {"list": {"i": ["1", "1", "1", "1"]}}, "use_cudnn_on_gpu": {"b": true}, "explicit_paddings": {"list": {}}, "dilations": {"list": {"i": ["1", "1", "1", "1"]}}, "padding": {"s": "VkFMSUQ="}}}, {"name": "StatefulPartitionedCall/center_net_resnet_feature_extractor/functional_3/functional_1/conv4_block1_out/add", "op": "AddV2", "input": ["StatefulPartitionedCall/center_net_resnet_feature_extractor/functional_3/functional_1/conv4_block1_0_conv/BiasAdd", "StatefulPartitionedCall/center_net_resnet_feature_extractor/functional_3/functional_1/conv4_block1_3_conv/BiasAdd"], "attr": {"T": {"type": "DT_FLOAT"}}}, {"name": "StatefulPartitionedCall/center_net_resnet_feature_extractor/functional_3/functional_1/conv4_block2_preact_bn/FusedBatchNormV3/Mul", "op": "Mul", "input": ["StatefulPartitionedCall/center_net_resnet_feature_extractor/functional_3/functional_1/conv4_block1_out/add", "StatefulPartitionedCall/center_net_resnet_feature_extractor/functional_3/functional_1/conv4_block2_preact_bn/FusedBatchNormV3/Scaled"], "attr": {"T": {"type": "DT_FLOAT"}}}, {"name": "StatefulPartitionedCall/center_net_resnet_feature_extractor/functional_3/functional_1/conv4_block2_preact_bn/FusedBatchNormV3", "op": "Add", "input": ["StatefulPartitionedCall/center_net_resnet_feature_extractor/functional_3/functional_1/conv4_block2_preact_bn/FusedBatchNormV3/Mul", "StatefulPartitionedCall/center_net_resnet_feature_extractor/functional_3/functional_1/conv4_block2_preact_bn/FusedBatchNormV3/Offset"], "attr": {"T": {"type": "DT_FLOAT"}}}, {"name": "StatefulPartitionedCall/center_net_resnet_feature_extractor/functional_3/functional_1/conv4_block2_preact_relu/Relu", "op": "Relu", "input": ["StatefulPartitionedCall/center_net_resnet_feature_extractor/functional_3/functional_1/conv4_block2_preact_bn/FusedBatchNormV3"], "attr": {"T": {"type": "DT_FLOAT"}}}, {"name": "StatefulPartitionedCall/center_net_resnet_feature_extractor/functional_3/functional_1/conv4_block2_1_relu/Relu", "op": "_FusedConv2D", "input": ["StatefulPartitionedCall/center_net_resnet_feature_extractor/functional_3/functional_1/conv4_block2_preact_relu/Relu", "StatefulPartitionedCall/center_net_resnet_feature_extractor/functional_3/functional_1/conv4_block2_1_conv/Conv2D_weights", "StatefulPartitionedCall/center_net_resnet_feature_extractor/functional_3/functional_1/conv4_block2_1_conv/Conv2D_bn_offset"], "device": "/device:CPU:0", "attr": {"T": {"type": "DT_FLOAT"}, "padding": {"s": "VkFMSUQ="}, "epsilon": {"f": 0.0}, "dilations": {"list": {"i": ["1", "1", "1", "1"]}}, "num_args": {"i": "1"}, "strides": {"list": {"i": ["1", "1", "1", "1"]}}, "fused_ops": {"list": {"s": ["Qmlhc0FkZA==", "UmVsdQ=="]}}, "use_cudnn_on_gpu": {"b": true}, "data_format": {"s": "TkhXQw=="}, "explicit_paddings": {"list": {}}}}, {"name": "StatefulPartitionedCall/center_net_resnet_feature_extractor/functional_3/functional_1/conv4_block2_2_pad/Pad", "op": "Pad", "input": ["StatefulPartitionedCall/center_net_resnet_feature_extractor/functional_3/functional_1/conv4_block2_1_relu/Relu", "StatefulPartitionedCall/center_net_resnet_feature_extractor/functional_3/functional_1/conv4_block2_2_pad/Pad/paddings"], "attr": {"T": {"type": "DT_FLOAT"}, "Tpaddings": {"type": "DT_INT32"}}}, {"name": "StatefulPartitionedCall/center_net_resnet_feature_extractor/functional_3/functional_1/conv4_block2_2_relu/Relu", "op": "_FusedConv2D", "input": ["StatefulPartitionedCall/center_net_resnet_feature_extractor/functional_3/functional_1/conv4_block2_2_pad/Pad", "StatefulPartitionedCall/center_net_resnet_feature_extractor/functional_3/functional_1/conv4_block2_2_conv/Conv2D_weights", "StatefulPartitionedCall/center_net_resnet_feature_extractor/functional_3/functional_1/conv4_block2_2_conv/Conv2D_bn_offset"], "device": "/device:CPU:0", "attr": {"use_cudnn_on_gpu": {"b": true}, "explicit_paddings": {"list": {}}, "T": {"type": "DT_FLOAT"}, "fused_ops": {"list": {"s": ["Qmlhc0FkZA==", "UmVsdQ=="]}}, "padding": {"s": "VkFMSUQ="}, "num_args": {"i": "1"}, "data_format": {"s": "TkhXQw=="}, "strides": {"list": {"i": ["1", "1", "1", "1"]}}, "dilations": {"list": {"i": ["1", "1", "1", "1"]}}, "epsilon": {"f": 0.0}}}, {"name": "StatefulPartitionedCall/center_net_resnet_feature_extractor/functional_3/functional_1/conv4_block2_3_conv/BiasAdd", "op": "_FusedConv2D", "input": ["StatefulPartitionedCall/center_net_resnet_feature_extractor/functional_3/functional_1/conv4_block2_2_relu/Relu", "unknown_149", "unknown_150"], "device": "/device:CPU:0", "attr": {"use_cudnn_on_gpu": {"b": true}, "padding": {"s": "VkFMSUQ="}, "dilations": {"list": {"i": ["1", "1", "1", "1"]}}, "data_format": {"s": "TkhXQw=="}, "num_args": {"i": "1"}, "T": {"type": "DT_FLOAT"}, "epsilon": {"f": 0.0}, "strides": {"list": {"i": ["1", "1", "1", "1"]}}, "explicit_paddings": {"list": {}}, "fused_ops": {"list": {"s": ["Qmlhc0FkZA=="]}}}}, {"name": "StatefulPartitionedCall/center_net_resnet_feature_extractor/functional_3/functional_1/conv4_block2_out/add", "op": "AddV2", "input": ["StatefulPartitionedCall/center_net_resnet_feature_extractor/functional_3/functional_1/conv4_block1_out/add", "StatefulPartitionedCall/center_net_resnet_feature_extractor/functional_3/functional_1/conv4_block2_3_conv/BiasAdd"], "attr": {"T": {"type": "DT_FLOAT"}}}, {"name": "StatefulPartitionedCall/center_net_resnet_feature_extractor/functional_3/functional_1/conv4_block3_preact_bn/FusedBatchNormV3/Mul", "op": "Mul", "input": ["StatefulPartitionedCall/center_net_resnet_feature_extractor/functional_3/functional_1/conv4_block2_out/add", "StatefulPartitionedCall/center_net_resnet_feature_extractor/functional_3/functional_1/conv4_block3_preact_bn/FusedBatchNormV3/Scaled"], "attr": {"T": {"type": "DT_FLOAT"}}}, {"name": "StatefulPartitionedCall/center_net_resnet_feature_extractor/functional_3/functional_1/conv4_block3_preact_bn/FusedBatchNormV3", "op": "Add", "input": ["StatefulPartitionedCall/center_net_resnet_feature_extractor/functional_3/functional_1/conv4_block3_preact_bn/FusedBatchNormV3/Mul", "StatefulPartitionedCall/center_net_resnet_feature_extractor/functional_3/functional_1/conv4_block3_preact_bn/FusedBatchNormV3/Offset"], "attr": {"T": {"type": "DT_FLOAT"}}}, {"name": "StatefulPartitionedCall/center_net_resnet_feature_extractor/functional_3/functional_1/conv4_block3_preact_relu/Relu", "op": "Relu", "input": ["StatefulPartitionedCall/center_net_resnet_feature_extractor/functional_3/functional_1/conv4_block3_preact_bn/FusedBatchNormV3"], "attr": {"T": {"type": "DT_FLOAT"}}}, {"name": "StatefulPartitionedCall/center_net_resnet_feature_extractor/functional_3/functional_1/conv4_block3_1_relu/Relu", "op": "_FusedConv2D", "input": ["StatefulPartitionedCall/center_net_resnet_feature_extractor/functional_3/functional_1/conv4_block3_preact_relu/Relu", "StatefulPartitionedCall/center_net_resnet_feature_extractor/functional_3/functional_1/conv4_block3_1_conv/Conv2D_weights", "StatefulPartitionedCall/center_net_resnet_feature_extractor/functional_3/functional_1/conv4_block3_1_conv/Conv2D_bn_offset"], "device": "/device:CPU:0", "attr": {"epsilon": {"f": 0.0}, "dilations": {"list": {"i": ["1", "1", "1", "1"]}}, "data_format": {"s": "TkhXQw=="}, "padding": {"s": "VkFMSUQ="}, "use_cudnn_on_gpu": {"b": true}, "num_args": {"i": "1"}, "fused_ops": {"list": {"s": ["Qmlhc0FkZA==", "UmVsdQ=="]}}, "strides": {"list": {"i": ["1", "1", "1", "1"]}}, "T": {"type": "DT_FLOAT"}, "explicit_paddings": {"list": {}}}}, {"name": "StatefulPartitionedCall/center_net_resnet_feature_extractor/functional_3/functional_1/conv4_block3_2_pad/Pad", "op": "Pad", "input": ["StatefulPartitionedCall/center_net_resnet_feature_extractor/functional_3/functional_1/conv4_block3_1_relu/Relu", "StatefulPartitionedCall/center_net_resnet_feature_extractor/functional_3/functional_1/conv4_block3_2_pad/Pad/paddings"], "attr": {"Tpaddings": {"type": "DT_INT32"}, "T": {"type": "DT_FLOAT"}}}, {"name": "StatefulPartitionedCall/center_net_resnet_feature_extractor/functional_3/functional_1/conv4_block3_2_relu/Relu", "op": "_FusedConv2D", "input": ["StatefulPartitionedCall/center_net_resnet_feature_extractor/functional_3/functional_1/conv4_block3_2_pad/Pad", "StatefulPartitionedCall/center_net_resnet_feature_extractor/functional_3/functional_1/conv4_block3_2_conv/Conv2D_weights", "StatefulPartitionedCall/center_net_resnet_feature_extractor/functional_3/functional_1/conv4_block3_2_conv/Conv2D_bn_offset"], "device": "/device:CPU:0", "attr": {"dilations": {"list": {"i": ["1", "1", "1", "1"]}}, "explicit_paddings": {"list": {}}, "T": {"type": "DT_FLOAT"}, "data_format": {"s": "TkhXQw=="}, "strides": {"list": {"i": ["1", "1", "1", "1"]}}, "num_args": {"i": "1"}, "use_cudnn_on_gpu": {"b": true}, "padding": {"s": "VkFMSUQ="}, "epsilon": {"f": 0.0}, "fused_ops": {"list": {"s": ["Qmlhc0FkZA==", "UmVsdQ=="]}}}}, {"name": "StatefulPartitionedCall/center_net_resnet_feature_extractor/functional_3/functional_1/conv4_block3_3_conv/BiasAdd", "op": "_FusedConv2D", "input": ["StatefulPartitionedCall/center_net_resnet_feature_extractor/functional_3/functional_1/conv4_block3_2_relu/Relu", "unknown_165", "unknown_166"], "device": "/device:CPU:0", "attr": {"T": {"type": "DT_FLOAT"}, "strides": {"list": {"i": ["1", "1", "1", "1"]}}, "epsilon": {"f": 0.0}, "explicit_paddings": {"list": {}}, "data_format": {"s": "TkhXQw=="}, "num_args": {"i": "1"}, "use_cudnn_on_gpu": {"b": true}, "fused_ops": {"list": {"s": ["Qmlhc0FkZA=="]}}, "dilations": {"list": {"i": ["1", "1", "1", "1"]}}, "padding": {"s": "VkFMSUQ="}}}, {"name": "StatefulPartitionedCall/center_net_resnet_feature_extractor/functional_3/functional_1/conv4_block3_out/add", "op": "AddV2", "input": ["StatefulPartitionedCall/center_net_resnet_feature_extractor/functional_3/functional_1/conv4_block2_out/add", "StatefulPartitionedCall/center_net_resnet_feature_extractor/functional_3/functional_1/conv4_block3_3_conv/BiasAdd"], "attr": {"T": {"type": "DT_FLOAT"}}}, {"name": "StatefulPartitionedCall/center_net_resnet_feature_extractor/functional_3/functional_1/conv4_block4_preact_bn/FusedBatchNormV3/Mul", "op": "Mul", "input": ["StatefulPartitionedCall/center_net_resnet_feature_extractor/functional_3/functional_1/conv4_block3_out/add", "StatefulPartitionedCall/center_net_resnet_feature_extractor/functional_3/functional_1/conv4_block4_preact_bn/FusedBatchNormV3/Scaled"], "attr": {"T": {"type": "DT_FLOAT"}}}, {"name": "StatefulPartitionedCall/center_net_resnet_feature_extractor/functional_3/functional_1/conv4_block4_preact_bn/FusedBatchNormV3", "op": "Add", "input": ["StatefulPartitionedCall/center_net_resnet_feature_extractor/functional_3/functional_1/conv4_block4_preact_bn/FusedBatchNormV3/Mul", "StatefulPartitionedCall/center_net_resnet_feature_extractor/functional_3/functional_1/conv4_block4_preact_bn/FusedBatchNormV3/Offset"], "attr": {"T": {"type": "DT_FLOAT"}}}, {"name": "StatefulPartitionedCall/center_net_resnet_feature_extractor/functional_3/functional_1/conv4_block4_preact_relu/Relu", "op": "Relu", "input": ["StatefulPartitionedCall/center_net_resnet_feature_extractor/functional_3/functional_1/conv4_block4_preact_bn/FusedBatchNormV3"], "attr": {"T": {"type": "DT_FLOAT"}}}, {"name": "StatefulPartitionedCall/center_net_resnet_feature_extractor/functional_3/functional_1/conv4_block4_1_relu/Relu", "op": "_FusedConv2D", "input": ["StatefulPartitionedCall/center_net_resnet_feature_extractor/functional_3/functional_1/conv4_block4_preact_relu/Relu", "StatefulPartitionedCall/center_net_resnet_feature_extractor/functional_3/functional_1/conv4_block4_1_conv/Conv2D_weights", "StatefulPartitionedCall/center_net_resnet_feature_extractor/functional_3/functional_1/conv4_block4_1_conv/Conv2D_bn_offset"], "device": "/device:CPU:0", "attr": {"strides": {"list": {"i": ["1", "1", "1", "1"]}}, "dilations": {"list": {"i": ["1", "1", "1", "1"]}}, "explicit_paddings": {"list": {}}, "data_format": {"s": "TkhXQw=="}, "padding": {"s": "VkFMSUQ="}, "epsilon": {"f": 0.0}, "num_args": {"i": "1"}, "T": {"type": "DT_FLOAT"}, "use_cudnn_on_gpu": {"b": true}, "fused_ops": {"list": {"s": ["Qmlhc0FkZA==", "UmVsdQ=="]}}}}, {"name": "StatefulPartitionedCall/center_net_resnet_feature_extractor/functional_3/functional_1/conv4_block4_2_pad/Pad", "op": "Pad", "input": ["StatefulPartitionedCall/center_net_resnet_feature_extractor/functional_3/functional_1/conv4_block4_1_relu/Relu", "StatefulPartitionedCall/center_net_resnet_feature_extractor/functional_3/functional_1/conv4_block4_2_pad/Pad/paddings"], "attr": {"T": {"type": "DT_FLOAT"}, "Tpaddings": {"type": "DT_INT32"}}}, {"name": "StatefulPartitionedCall/center_net_resnet_feature_extractor/functional_3/functional_1/conv4_block4_2_relu/Relu", "op": "_FusedConv2D", "input": ["StatefulPartitionedCall/center_net_resnet_feature_extractor/functional_3/functional_1/conv4_block4_2_pad/Pad", "StatefulPartitionedCall/center_net_resnet_feature_extractor/functional_3/functional_1/conv4_block4_2_conv/Conv2D_weights", "StatefulPartitionedCall/center_net_resnet_feature_extractor/functional_3/functional_1/conv4_block4_2_conv/Conv2D_bn_of…
artitionedCall/Scale/concat", "StatefulPartitionedCall/ToNormalizedCoordinates/Const"], "attr": {"T": {"type": "DT_FLOAT"}, "keep_dims": {"b": false}, "Tidx": {"type": "DT_INT32"}}}, {"name": "StatefulPartitionedCall/ToNormalizedCoordinates/Scale/mul", "op": "Mul", "input": ["StatefulPartitionedCall/ToNormalizedCoordinates/truediv", "StatefulPartitionedCall/ToNormalizedCoordinates/Scale/split"], "attr": {"T": {"type": "DT_FLOAT"}}}, {"name": "StatefulPartitionedCall/ToNormalizedCoordinates/Scale/mul_1", "op": "Mul", "input": ["StatefulPartitionedCall/ToNormalizedCoordinates/truediv", "StatefulPartitionedCall/ToNormalizedCoordinates/Scale/split:2"], "attr": {"T": {"type": "DT_FLOAT"}}}, {"name": "StatefulPartitionedCall/ToNormalizedCoordinates/Greater", "op": "Greater", "input": ["StatefulPartitionedCall/ToNormalizedCoordinates/Max", "StatefulPartitionedCall/ToNormalizedCoordinates/Greater/y"], "attr": {"T": {"type": "DT_FLOAT"}}}, {"name": "StatefulPartitionedCall/ToNormalizedCoordinates/Assert/AssertGuard/switch_pred/_366", "op": "Switch", "input": ["StatefulPartitionedCall/ToNormalizedCoordinates/Greater", "StatefulPartitionedCall/ToNormalizedCoordinates/Greater", "^StatefulPartitionedCall/Assert_3/AssertGuard/branch_executed/_363"], "device": "/device:CPU:0", "attr": {"T": {"type": "DT_BOOL"}, "_PivotSwitch": {"b": true}}}, {"name": "StatefulPartitionedCall/ToNormalizedCoordinates/Assert/AssertGuard/StatefulPartitionedCall/ToNormalizedCoordinates/Greater/_369", "op": "Switch", "input": ["StatefulPartitionedCall/ToNormalizedCoordinates/Greater", "StatefulPartitionedCall/ToNormalizedCoordinates/Greater"], "attr": {"T": {"type": "DT_BOOL"}}}, {"name": "StatefulPartitionedCall/ToNormalizedCoordinates/Assert/AssertGuard/StatefulPartitionedCall/ToNormalizedCoordinates/Max/_370", "op": "Switch", "input": ["StatefulPartitionedCall/ToNormalizedCoordinates/Max", "StatefulPartitionedCall/ToNormalizedCoordinates/Greater"], "attr": {"T": {"type": "DT_FLOAT"}}}, {"name": "ConstantFoldingCtrl/StatefulPartitionedCall/ToNormalizedCoordinates/Assert/AssertGuard/switch_pred/_366_0", "op": "Identity", "input": ["StatefulPartitionedCall/ToNormalizedCoordinates/Assert/AssertGuard/switch_pred/_366"], "device": "/device:CPU:0", "attr": {"T": {"type": "DT_BOOL"}}}, {"name": "ConstantFoldingCtrl/StatefulPartitionedCall/ToNormalizedCoordinates/Assert/AssertGuard/switch_pred/_366_1", "op": "Identity", "input": ["StatefulPartitionedCall/ToNormalizedCoordinates/Assert/AssertGuard/switch_pred/_366:1"], "device": "/device:CPU:0", "attr": {"T": {"type": "DT_BOOL"}}}, {"name": "ConstantFoldingCtrl/StatefulPartitionedCall/ToNormalizedCoordinates/Assert/AssertGuard/StatefulPartitionedCall/ToNormalizedCoordinates/Greater/_369_0", "op": "Identity", "input": ["StatefulPartitionedCall/ToNormalizedCoordinates/Assert/AssertGuard/StatefulPartitionedCall/ToNormalizedCoordinates/Greater/_369"], "attr": {"T": {"type": "DT_BOOL"}}}, {"name": "ConstantFoldingCtrl/StatefulPartitionedCall/ToNormalizedCoordinates/Assert/AssertGuard/StatefulPartitionedCall/ToNormalizedCoordinates/Greater/_369_1", "op": "Identity", "input": ["StatefulPartitionedCall/ToNormalizedCoordinates/Assert/AssertGuard/StatefulPartitionedCall/ToNormalizedCoordinates/Greater/_369:1"], "attr": {"T": {"type": "DT_BOOL"}}}, {"name": "StatefulPartitionedCall/ToNormalizedCoordinates/Assert/AssertGuard/pivot_f/_367", "op": "Const", "input": ["^ConstantFoldingCtrl/StatefulPartitionedCall/ToNormalizedCoordinates/Assert/AssertGuard/switch_pred/_366_0"], "attr": {"dtype": {"type": "DT_BOOL"}, "value": {"tensor": {"dtype": "DT_BOOL", "tensorShape": {}}}}}, {"name": "StatefulPartitionedCall/ToNormalizedCoordinates/Assert/AssertGuard/pivot_t/_368", "op": "Const", "input": ["^ConstantFoldingCtrl/StatefulPartitionedCall/ToNormalizedCoordinates/Assert/AssertGuard/switch_pred/_366_1"], "attr": {"value": {"tensor": {"dtype": "DT_BOOL", "tensorShape": {}}}, "dtype": {"type": "DT_BOOL"}}}, {"name": "Func/StatefulPartitionedCall/ToNormalizedCoordinates/Assert/AssertGuard/else/_365/input/_428", "op": "Identity", "input": ["StatefulPartitionedCall/ToNormalizedCoordinates/Assert/AssertGuard/StatefulPartitionedCall/ToNormalizedCoordinates/Max/_370", "^StatefulPartitionedCall/ToNormalizedCoordinates/Assert/AssertGuard/pivot_f/_367"], "attr": {"T": {"type": "DT_FLOAT"}}}, {"name": "Func/StatefulPartitionedCall/ToNormalizedCoordinates/Assert/AssertGuard/then/_364/output/_424", "op": "Const", "input": ["^ConstantFoldingCtrl/StatefulPartitionedCall/ToNormalizedCoordinates/Assert/AssertGuard/StatefulPartitionedCall/ToNormalizedCoordinates/Greater/_369_1", "^StatefulPartitionedCall/ToNormalizedCoordinates/Assert/AssertGuard/pivot_t/_368"], "attr": {"dtype": {"type": "DT_BOOL"}, "value": {"tensor": {"dtype": "DT_BOOL", "tensorShape": {}}}}}, {"name": "Func/StatefulPartitionedCall/ToNormalizedCoordinates/Assert/AssertGuard/else/_365/output/_429", "op": "Const", "input": ["^Func/StatefulPartitionedCall/ToNormalizedCoordinates/Assert/AssertGuard/else/_365/input/_428", "^ConstantFoldingCtrl/StatefulPartitionedCall/ToNormalizedCoordinates/Assert/AssertGuard/StatefulPartitionedCall/ToNormalizedCoordinates/Greater/_369_0"], "attr": {"dtype": {"type": "DT_BOOL"}, "value": {"tensor": {"dtype": "DT_BOOL", "tensorShape": {}}}}}, {"name": "StatefulPartitionedCall/ToNormalizedCoordinates/Assert/AssertGuard/branch_executed/_372", "op": "Merge", "input": ["StatefulPartitionedCall/ToNormalizedCoordinates/Assert/AssertGuard/pivot_t/_368", "StatefulPartitionedCall/ToNormalizedCoordinates/Assert/AssertGuard/pivot_f/_367", "^Func/StatefulPartitionedCall/ToNormalizedCoordinates/Assert/AssertGuard/else/_365/input/_428", "^ConstantFoldingCtrl/StatefulPartitionedCall/ToNormalizedCoordinates/Assert/AssertGuard/StatefulPartitionedCall/ToNormalizedCoordinates/Greater/_369_0"], "attr": {"N": {"i": "2"}, "T": {"type": "DT_BOOL"}}}, {"name": "StatefulPartitionedCall/ToNormalizedCoordinates/Assert/AssertGuard/output/_371", "op": "Merge", "input": ["Func/StatefulPartitionedCall/ToNormalizedCoordinates/Assert/AssertGuard/then/_364/output/_424", "Func/StatefulPartitionedCall/ToNormalizedCoordinates/Assert/AssertGuard/else/_365/output/_429"], "attr": {"T": {"type": "DT_BOOL"}, "N": {"i": "2"}}}, {"name": "Func/StatefulPartitionedCall/output_control_node/_319", "op": "NoOp", "input": ["^StatefulPartitionedCall/Assert/AssertGuard/branch_executed/_336", "^StatefulPartitionedCall/Assert_1/AssertGuard/branch_executed/_345", "^StatefulPartitionedCall/Assert_2/AssertGuard/branch_executed/_354", "^StatefulPartitionedCall/Assert_3/AssertGuard/branch_executed/_363", "^StatefulPartitionedCall/ToNormalizedCoordinates/Assert/AssertGuard/branch_executed/_372"]}, {"name": "StatefulPartitionedCall/ToNormalizedCoordinates/truediv_1", "op": "Reciprocal", "input": ["StatefulPartitionedCall/ToNormalizedCoordinates/Cast_1", "^StatefulPartitionedCall/ToNormalizedCoordinates/Assert/AssertGuard/output/_371"], "attr": {"T": {"type": "DT_FLOAT"}}}, {"name": "Identity_1", "op": "Identity", "input": ["StatefulPartitionedCall/add_7", "^Func/StatefulPartitionedCall/output_control_node/_319", "^StatefulPartitionedCall/Assert/AssertGuard/branch_executed/_336", "^StatefulPartitionedCall/Assert_1/AssertGuard/branch_executed/_345", "^StatefulPartitionedCall/Assert_2/AssertGuard/branch_executed/_354", "^StatefulPartitionedCall/Assert_3/AssertGuard/branch_executed/_363", "^StatefulPartitionedCall/ToNormalizedCoordinates/Assert/AssertGuard/branch_executed/_372"], "attr": {"T": {"type": "DT_FLOAT"}}}, {"name": "Identity_2", "op": "Identity", "input": ["StatefulPartitionedCall/TopKV2", "^Func/StatefulPartitionedCall/output_control_node/_319", "^StatefulPartitionedCall/Assert/AssertGuard/branch_executed/_336", "^StatefulPartitionedCall/Assert_1/AssertGuard/branch_executed/_345", "^StatefulPartitionedCall/Assert_2/AssertGuard/branch_executed/_354", "^StatefulPartitionedCall/Assert_3/AssertGuard/branch_executed/_363", "^StatefulPartitionedCall/ToNormalizedCoordinates/Assert/AssertGuard/branch_executed/_372"], "attr": {"T": {"type": "DT_FLOAT"}}}, {"name": "Identity_3", "op": "Identity", "input": ["StatefulPartitionedCall/Cast_5", "^Func/StatefulPartitionedCall/output_control_node/_319", "^StatefulPartitionedCall/Assert/AssertGuard/branch_executed/_336", "^StatefulPartitionedCall/Assert_1/AssertGuard/branch_executed/_345", "^StatefulPartitionedCall/Assert_2/AssertGuard/branch_executed/_354", "^StatefulPartitionedCall/Assert_3/AssertGuard/branch_executed/_363", "^StatefulPartitionedCall/ToNormalizedCoordinates/Assert/AssertGuard/branch_executed/_372"], "attr": {"T": {"type": "DT_FLOAT"}}}, {"name": "StatefulPartitionedCall/ToNormalizedCoordinates/Scale/mul_2", "op": "Mul", "input": ["StatefulPartitionedCall/ToNormalizedCoordinates/truediv_1", "StatefulPartitionedCall/ToNormalizedCoordinates/Scale/split:1"], "attr": {"T": {"type": "DT_FLOAT"}}}, {"name": "StatefulPartitionedCall/ToNormalizedCoordinates/Scale/mul_3", "op": "Mul", "input": ["StatefulPartitionedCall/ToNormalizedCoordinates/truediv_1", "StatefulPartitionedCall/ToNormalizedCoordinates/Scale/split:3"], "attr": {"T": {"type": "DT_FLOAT"}}}, {"name": "StatefulPartitionedCall/ToNormalizedCoordinates/Scale/concat", "op": "ConcatV2", "input": ["StatefulPartitionedCall/ToNormalizedCoordinates/Scale/mul", "StatefulPartitionedCall/ToNormalizedCoordinates/Scale/mul_2", "StatefulPartitionedCall/ToNormalizedCoordinates/Scale/mul_1", "StatefulPartitionedCall/ToNormalizedCoordinates/Scale/mul_3", "StatefulPartitionedCall/ToNormalizedCoordinates/Scale/concat/axis"], "attr": {"T": {"type": "DT_FLOAT"}, "N": {"i": "4"}, "Tidx": {"type": "DT_INT32"}}}, {"name": "StatefulPartitionedCall/ClipToWindow/split", "op": "Split", "input": ["StatefulPartitionedCall/ClipToWindow/split/split_dim", "StatefulPartitionedCall/ToNormalizedCoordinates/Scale/concat"], "attr": {"num_split": {"i": "4"}, "T": {"type": "DT_FLOAT"}}}, {"name": "StatefulPartitionedCall/ClipToWindow/Minimum", "op": "Minimum", "input": ["StatefulPartitionedCall/ClipToWindow/split", "ConstantFolding/StatefulPartitionedCall/ClipToWindow/unstack-folded-2"], "attr": {"T": {"type": "DT_FLOAT"}}}, {"name": "StatefulPartitionedCall/ClipToWindow/Minimum_2", "op": "Minimum", "input": ["StatefulPartitionedCall/ClipToWindow/split:1", "ConstantFolding/StatefulPartitionedCall/ClipToWindow/unstack-folded-3"], "attr": {"T": {"type": "DT_FLOAT"}}}, {"name": "StatefulPartitionedCall/ClipToWindow/Minimum_1", "op": "Minimum", "input": ["StatefulPartitionedCall/ClipToWindow/split:2", "ConstantFolding/StatefulPartitionedCall/ClipToWindow/unstack-folded-2"], "attr": {"T": {"type": "DT_FLOAT"}}}, {"name": "StatefulPartitionedCall/ClipToWindow/Minimum_3", "op": "Minimum", "input": ["StatefulPartitionedCall/ClipToWindow/split:3", "ConstantFolding/StatefulPartitionedCall/ClipToWindow/unstack-folded-3"], "attr": {"T": {"type": "DT_FLOAT"}}}, {"name": "StatefulPartitionedCall/ClipToWindow/Maximum", "op": "Maximum", "input": ["StatefulPartitionedCall/ClipToWindow/Minimum", "ConstantFolding/StatefulPartitionedCall/ClipToWindow/unstack-folded-0"], "attr": {"T": {"type": "DT_FLOAT"}}}, {"name": "StatefulPartitionedCall/ClipToWindow/Maximum_2", "op": "Maximum", "input": ["StatefulPartitionedCall/ClipToWindow/Minimum_2", "ConstantFolding/StatefulPartitionedCall/ClipToWindow/unstack-folded-1"], "attr": {"T": {"type": "DT_FLOAT"}}}, {"name": "StatefulPartitionedCall/ClipToWindow/Maximum_1", "op": "Maximum", "input": ["StatefulPartitionedCall/ClipToWindow/Minimum_1", "ConstantFolding/StatefulPartitionedCall/ClipToWindow/unstack-folded-0"], "attr": {"T": {"type": "DT_FLOAT"}}}, {"name": "StatefulPartitionedCall/ClipToWindow/Maximum_3", "op": "Maximum", "input": ["StatefulPartitionedCall/ClipToWindow/Minimum_3", "ConstantFolding/StatefulPartitionedCall/ClipToWindow/unstack-folded-1"], "attr": {"T": {"type": "DT_FLOAT"}}}, {"name": "StatefulPartitionedCall/ClipToWindow/concat", "op": "ConcatV2", "input": ["StatefulPartitionedCall/ClipToWindow/Maximum", "StatefulPartitionedCall/ClipToWindow/Maximum_2", "StatefulPartitionedCall/ClipToWindow/Maximum_1", "StatefulPartitionedCall/ClipToWindow/Maximum_3", "StatefulPartitionedCall/ClipToWindow/concat/axis"], "attr": {"Tidx": {"type": "DT_INT32"}, "N": {"i": "4"}, "T": {"type": "DT_FLOAT"}}}, {"name": "ConstantFolding/StatefulPartitionedCall/stack_3_const_axis", "op": "Const", "input": ["^StatefulPartitionedCall/ClipToWindow/concat"], "attr": {"value": {"tensor": {"dtype": "DT_INT32", "tensorShape": {}}}, "dtype": {"type": "DT_INT32"}}}, {"name": "StatefulPartitionedCall/stack_3", "op": "ExpandDims", "input": ["StatefulPartitionedCall/ClipToWindow/concat", "ConstantFolding/StatefulPartitionedCall/stack_3_const_axis"], "attr": {"T": {"type": "DT_FLOAT"}, "Tdim": {"type": "DT_INT32"}}}, {"name": "Identity", "op": "Identity", "input": ["StatefulPartitionedCall/stack_3", "^Func/StatefulPartitionedCall/output_control_node/_319", "^StatefulPartitionedCall/Assert/AssertGuard/branch_executed/_336", "^StatefulPartitionedCall/Assert_1/AssertGuard/branch_executed/_345", "^StatefulPartitionedCall/Assert_2/AssertGuard/branch_executed/_354", "^StatefulPartitionedCall/Assert_3/AssertGuard/branch_executed/_363", "^StatefulPartitionedCall/ToNormalizedCoordinates/Assert/AssertGuard/branch_executed/_372"], "attr": {"T": {"type": "DT_FLOAT"}}}], "library": {}, "versions": {"producer": 561}}, "weightsManifest": [{"paths": ["group1-shard1of29.bin", "group1-shard2of29.bin", "group1-shard3of29.bin", "group1-shard4of29.bin", "group1-shard5of29.bin", "group1-shard6of29.bin", "group1-shard7of29.bin", "group1-shard8of29.bin", "group1-shard9of29.bin", "group1-shard10of29.bin", "group1-shard11of29.bin", "group1-shard12of29.bin", "group1-shard13of29.bin", "group1-shard14of29.bin", "group1-shard15of29.bin", "group1-shard16of29.bin", "group1-shard17of29.bin", "group1-shard18of29.bin", "group1-shard19of29.bin", "group1-shard20of29.bin", "group1-shard21of29.bin", "group1-shard22of29.bin", "group1-shard23of29.bin", "group1-shard24of29.bin", "group1-shard25of29.bin", "group1-shard26of29.bin", "group1-shard27of29.bin", "group1-shard28of29.bin", "group1-shard29of29.bin"], "weights": [{"name": "ConstantFolding/StatefulPartitionedCall/ClipToWindow/unstack-folded-2", "shape": [], "dtype": "float32"}, {"name": "ConstantFolding/StatefulPartitionedCall/ClipToWindow/unstack-folded-0", "shape": [], "dtype": "float32"}, {"name": "StatefulPartitionedCall/ClipToWindow/split/split_dim", "shape": [], "dtype": "int32"}, {"name": "StatefulPartitionedCall/ToNormalizedCoordinates/Scale/split/split_dim", "shape": [], "dtype": "int32"}, {"name": "StatefulPartitionedCall/ToNormalizedCoordinates/Scale/concat/axis", "shape": [], "dtype": "int32"}, {"name": "ConstantFolding/StatefulPartitionedCall/ClipToWindow/unstack-folded-3", "shape": [], "dtype": "float32"}, {"name": "ConstantFolding/StatefulPartitionedCall/ClipToWindow/unstack-folded-1", "shape": [], "dtype": "float32"}, {"name": "StatefulPartitionedCall/ClipToWindow/concat/axis", "shape": [], "dtype": "int32"}, {"name": "StatefulPartitionedCall/mod_1/y", "shape": [], "dtype": "int32"}, {"name": "StatefulPartitionedCall/add_7/y", "shape": [], "dtype": "float32"}, {"name": "StatefulPartitionedCall/Greater/y", "shape": [], "dtype": "float32"}, {"name": "StatefulPartitionedCall/Sum/reduction_indices", "shape": [], "dtype": "int32"}, {"name": "StatefulPartitionedCall/Assert_3/Condition", "shape": [], "dtype": "bool"}, {"name": "StatefulPartitionedCall/Assert_2/Condition", "shape": [], "dtype": "bool"}, {"name": "StatefulPartitionedCall/Assert_1/Condition", "shape": [], "dtype": "bool"}, {"name": "StatefulPartitionedCall/Assert/AssertGuard/pivot_t/_332", "shape": [], "dtype": "bool"}, {"name": "StatefulPartitionedCall/Assert/Condition", "shape": [], "dtype": "bool"}, {"name": "StatefulPartitionedCall/Scale/Cast", "shape": [], "dtype": "float32"}, {"name": "StatefulPartitionedCall/Scale/Cast_1", "shape": [], "dtype": "float32"}, {"name": "StatefulPartitionedCall/Scale/split/split_dim", "shape": [], "dtype": "int32"}, {"name": "ConstantFolding/StatefulPartitionedCall/truediv_2_recip", "shape": [], "dtype": "float32"}, {"name": "ConstantFolding/StatefulPartitionedCall/truediv_3_recip", "shape": [], "dtype": "float32"}, {"name": "ConstantFolding/StatefulPartitionedCall/truediv_4_recip", "shape": [], "dtype": "float32"}, {"name": "unknown_309", "shape": [3, 3, 64, 256], "dtype": "float32"}, {"name": "unknown_310", "shape": [256], "dtype": "float32"}, {"name": "unknown_311", "shape": [1, 1, 256, 2], "dtype": "float32"}, {"name": "unknown_312", "shape": [2], "dtype": "float32"}, {"name": "StatefulPartitionedCall/Reshape_4/shape", "shape": [3], "dtype": "int32"}, {"name": "StatefulPartitionedCall/GatherV2_1/axis", "shape": [], "dtype": "int32"}, {"name": "unknown_305", "shape": [3, 3, 64, 256], "dtype": "float32"}, {"name": "unknown_306", "shape": [256], "dtype": "float32"}, {"name": "unknown_307", "shape": [1, 1, 256, 2], "dtype": "float32"}, {"name": "unknown_308", "shape": [2], "dtype": "float32"}, {"name": "StatefulPartitionedCall/Reshape_3/shape", "shape": [3], "dtype": "int32"}, {"name": "StatefulPartitionedCall/floordiv/y", "shape": [], "dtype": "int32"}, {"name": "StatefulPartitionedCall/floordiv_1/y", "shape": [], "dtype": "int32"}, {"name": "StatefulPartitionedCall/mul_1/y", "shape": [], "dtype": "int32"}, {"name": "StatefulPartitionedCall/center_net_resnet_feature_extractor/functional_3/conv2d_transpose_2/stack", "shape": [4], "dtype": "int32"}, {"name": "unknown_295", "shape": [3, 3, 64, 64], "dtype": "float32"}, {"name": "StatefulPartitionedCall/center_net_resnet_feature_extractor/functional_3/conv2d_transpose_1/stack", "shape": [4], "dtype": "int32"}, {"name": "unknown_283", "shape": [3, 3, 128, 128], "dtype": "float32"}, {"name": "StatefulPartitionedCall/center_net_resnet_feature_extractor/functional_3/conv2d_transpose/stack", "shape": [4], "dtype": "int32"}, {"name": "unknown_271", "shape": [3, 3, 256, 256], "dtype": "float32"}, {"name": "unknown_229", "shape": [1, 1, 1024, 2048], "dtype": "float32"}, {"name": "unknown_230", "shape": [2048], "dtype": "float32"}, {"name": "unknown_131", "shape": [1, 1, 512, 1024], "dtype": "float32"}, {"name": "unknown_132", "shape": [1024], "dtype": "float32"}, {"name": "unknown_65", "shape": [1, 1, 256, 512], "dtype": "float32"}, {"name": "unknown_66", "shape": [512], "dtype": "float32"}, {"name": "unknown_15", "shape": [1, 1, 64, 256], "dtype": "float32"}, {"name": "unknown_16", "shape": [256], "dtype": "float32"}, {"name": "StatefulPartitionedCall/ResizeToRange/Pad/paddings/0/0", "shape": [], "dtype": "int32"}, {"name": "StatefulPartitionedCall/ResizeToRange/sub/x", "shape": [], "dtype": "int32"}, {"name": "StatefulPartitionedCall/ResizeToRange/strided_slice_2/stack", "shape": [1], "dtype": "int32"}, {"name": "StatefulPartitionedCall/ResizeToRange/strided_slice_2/stack_1", "shape": [1], "dtype": "int32"}, {"name": "StatefulPartitionedCall/ResizeToRange/strided_slice_2/stack_2", "shape": [1], "dtype": "int32"}, {"name": "StatefulPartitionedCall/ResizeToRange/Pad/paddings/1/0", "shape": [], "dtype": "int32"}, {"name": "StatefulPartitionedCall/ResizeToRange/sub_1/x", "shape": [], "dtype": "int32"}, {"name": "StatefulPartitionedCall/ResizeToRange/strided_slice_3/stack", "shape": [1], "dtype": "int32"}, {"name": "StatefulPartitionedCall/ResizeToRange/strided_slice_3/stack_1", "shape": [1], "dtype": "int32"}, {"name": "StatefulPartitionedCall/ResizeToRange/strided_slice_3/stack_2", "shape": [1], "dtype": "int32"}, {"name": "StatefulPartitionedCall/ResizeToRange/Pad_1/paddings/0/0", "shape": [], "dtype": "int32"}, {"name": "StatefulPartitionedCall/ResizeToRange/sub_2/x", "shape": [], "dtype": "int32"}, {"name": "StatefulPartitionedCall/ResizeToRange/strided_slice_4/stack", "shape": [1], "dtype": "int32"}, {"name": "StatefulPartitionedCall/ResizeToRange/strided_slice_4/stack_1", "shape": [1], "dtype": "int32"}, {"name": "StatefulPartitionedCall/ResizeToRange/strided_slice_4/stack_2", "shape": [1], "dtype": "int32"}, {"name": "StatefulPartitionedCall/ResizeToRange/Pad_1/paddings/1/0", "shape": [], "dtype": "int32"}, {"name": "StatefulPartitionedCall/ResizeToRange/sub_3/x", "shape": [], "dtype": "int32"}, {"name": "StatefulPartitionedCall/ResizeToRange/strided_slice_5/stack", "shape": [1], "dtype": "int32"}, {"name": "StatefulPartitionedCall/ResizeToRange/strided_slice_5/stack_1", "shape": [1], "dtype": "int32"}, {"name": "StatefulPartitionedCall/ResizeToRange/strided_slice_5/stack_2", "shape": [1], "dtype": "int32"}, {"name": "StatefulPartitionedCall/ResizeToRange/Pad_2/paddings/0/0", "shape": [], "dtype": "int32"}, {"name": "StatefulPartitionedCall/ResizeToRange/sub_4/x", "shape": [], "dtype": "int32"}, {"name": "StatefulPartitionedCall/ResizeToRange/strided_slice_6/stack", "shape": [1], "dtype": "int32"}, {"name": "StatefulPartitionedCall/ResizeToRange/strided_slice_6/stack_1", "shape": [1], "dtype": "int32"}, {"name": "StatefulPartitionedCall/ResizeToRange/strided_slice_6/stack_2", "shape": [1], "dtype": "int32"}, {"name": "StatefulPartitionedCall/ResizeToRange/Pad_2/paddings/1/0", "shape": [], "dtype": "int32"}, {"name": "StatefulPartitionedCall/ResizeToRange/sub_5/x", "shape": [], "dtype": "int32"}, {"name": "StatefulPartitionedCall/ResizeToRange/strided_slice/stack", "shape": [1], "dtype": "int32"}, {"name": "StatefulPartitionedCall/ResizeToRange/strided_slice/stack_1", "shape": [1], "dtype": "int32"}, {"name": "StatefulPartitionedCall/ResizeToRange/strided_slice/stack_2", "shape": [1], "dtype": "int32"}, {"name": "StatefulPartitionedCall/ResizeToRange/strided_slice_1/stack", "shape": [1], "dtype": "int32"}, {"name": "StatefulPartitionedCall/ResizeToRange/strided_slice_1/stack_1", "shape": [1], "dtype": "int32"}, {"name": "StatefulPartitionedCall/ResizeToRange/strided_slice_1/stack_2", "shape": [1], "dtype": "int32"}, {"name": "StatefulPartitionedCall/ResizeToRange/strided_slice_7/stack", "shape": [1], "dtype": "int32"}, {"name": "StatefulPartitionedCall/ResizeToRange/strided_slice_7/stack_1", "shape": [1], "dtype": "int32"}, {"name": "StatefulPartitionedCall/ResizeToRange/strided_slice_7/stack_2", "shape": [1], "dtype": "int32"}, {"name": "ConstantFolding/StatefulPartitionedCall/truediv_1_recip", "shape": [], "dtype": "float32"}, {"name": "StatefulPartitionedCall/sub_1/y", "shape": [], "dtype": "float32"}, {"name": "StatefulPartitionedCall/center_net_resnet_feature_extractor/functional_3/functional_1/conv1_pad/Pad/paddings", "shape": [4, 2], "dtype": "int32"}, {"name": "unknown", "shape": [7, 7, 3, 64], "dtype": "float32"}, {"name": "unknown_0", "shape": [64], "dtype": "float32"}, {"name": "StatefulPartitionedCall/center_net_resnet_feature_extractor/functional_3/functional_1/pool1_pad/Pad/paddings", "shape": [4, 2], "dtype": "int32"}, {"name": "StatefulPartitionedCall/center_net_resnet_feature_extractor/functional_3/functional_1/conv2_block1_2_pad/Pad/paddings", "shape": [4, 2], "dtype": "int32"}, {"name": "unknown_17", "shape": [1, 1, 64, 256], "dtype": "float32"}, {"name": "unknown_18", "shape": [256], "dtype": "float32"}, {"name": "StatefulPartitionedCall/center_net_resnet_feature_extractor/functional_3/functional_1/conv2_block2_2_pad/Pad/paddings", "shape": [4, 2], "dtype": "int32"}, {"name": "unknown_33", "shape": [1, 1, 64, 256], "dtype": "float32"}, {"name": "unknown_34", "shape": [256], "dtype": "float32"}, {"name": "StatefulPartitionedCall/center_net_resnet_feature_extractor/functional_3/functional_1/conv2_block3_2_pad/Pad/paddings", "shape": [4, 2], "dtype": "int32"}, {"name": "unknown_49", "shape": [1, 1, 64, 256], "dtype": "float32"}, {"name": "unknown_50", "shape": [256], "dtype": "float32"}, {"name": "StatefulPartitionedCall/center_net_resnet_feature_extractor/functional_3/functional_1/conv3_block1_2_pad/Pad/paddings", "shape": [4, 2], "dtype": "int32"}, {"name": "unknown_67", "shape": [1, 1, 128, 512], "dtype": "float32"}, {"name": "unknown_68", "shape": [512], "dtype": "float32"}, {"name": "StatefulPartitionedCall/center_net_resnet_feature_extractor/functional_3/functional_1/conv3_block2_2_pad/Pad/paddings", "shape": [4, 2], "dtype": "int32"}, {"name": "unknown_83", "shape": [1, 1, 128, 512], "dtype": "float32"}, {"name": "unknown_84", "shape": [512], "dtype": "float32"}, {"name": "StatefulPartitionedCall/center_net_resnet_feature_extractor/functional_3/functional_1/conv3_block3_2_pad/Pad/paddings", "shape": [4, 2], "dtype": "int32"}, {"name": "unknown_99", "shape": [1, 1, 128, 512], "dtype": "float32"}, {"name": "unknown_100", "shape": [512], "dtype": "float32"}, {"name": "StatefulPartitionedCall/center_net_resnet_feature_extractor/functional_3/functional_1/conv3_block4_2_pad/Pad/paddings", "shape": [4, 2], "dtype": "int32"}, {"name": "unknown_115", "shape": [1, 1, 128, 512], "dtype": "float32"}, {"name": "unknown_116", "shape": [512], "dtype": "float32"}, {"name": "StatefulPartitionedCall/center_net_resnet_feature_extractor/functional_3/functional_1/conv4_block1_2_pad/Pad/paddings", "shape": [4, 2], "dtype": "int32"}, {"name": "unknown_133", "shape": [1, 1, 256, 1024], "dtype": "float32"}, {"name": "unknown_134", "shape": [1024], "dtype": "float32"}, {"name": "StatefulPartitionedCall/center_net_resnet_feature_extractor/functional_3/functional_1/conv4_block2_2_pad/Pad/paddings", "shape": [4, 2], "dtype": "int32"}, {"name": "unknown_149", "shape": [1, 1, 256, 1024], "dtype": "float32"}, {"name": "unknown_150", "shape": [1024], "dtype": "float32"}, {"name": "StatefulPartitionedCall/center_net_resnet_feature_extractor/functional_3/functional_1/conv4_block3_2_pad/Pad/paddings", "shape": [4, 2], "dtype": "int32"}, {"name": "unknown_165", "shape": [1, 1, 256, 1024], "dtype": "float32"}, {"name": "unknown_166", "shape": [1024], "dtype": "float32"}, {"name": "StatefulPartitionedCall/center_net_resnet_feature_extractor/functional_3/functional_1/conv4_block4_2_pad/Pad/paddings", "shape": [4, 2], "dtype": "int32"}, {"name": "unknown_181", "shape": [1, 1, 256, 1024], "dtype": "float32"}, {"name": "unknown_182", "shape": [1024], "dtype": "float32"}, {"name": "StatefulPartitionedCall/center_net_resnet_feature_extractor/functional_3/functional_1/conv4_block5_2_pad/Pad/paddings", "shape": [4, 2], "dtype": "int32"}, {"name": "unknown_197", "shape": [1, 1, 256, 1024], "dtype": "float32"}, {"name": "unknown_198", "shape": [1024], "dtype": "float32"}, {"name": "StatefulPartitionedCall/center_net_resnet_feature_extractor/functional_3/functional_1/conv4_block6_2_pad/Pad/paddings", "shape": [4, 2], "dtype": "int32"}, {"name": "unknown_213", "shape": [1, 1, 256, 1024], "dtype": "float32"}, {"name": "unknown_214", "shape": [1024], "dtype": "float32"}, {"name": "StatefulPartitionedCall/center_net_resnet_feature_extractor/functional_3/functional_1/conv5_block1_2_pad/Pad/paddings", "shape": [4, 2], "dtype": "int32"}, {"name": "unknown_231", "shape": [1, 1, 512, 2048], "dtype": "float32"}, {"name": "unknown_232", "shape": [2048], "dtype": "float32"}, {"name": "StatefulPartitionedCall/center_net_resnet_feature_extractor/functional_3/functional_1/conv5_block2_2_pad/Pad/paddings", "shape": [4, 2], "dtype": "int32"}, {"name": "unknown_247", "shape": [1, 1, 512, 2048], "dtype": "float32"}, {"name": "unknown_248", "shape": [2048], "dtype": "float32"}, {"name": "StatefulPartitionedCall/center_net_resnet_feature_extractor/functional_3/functional_1/conv5_block3_2_pad/Pad/paddings", "shape": [4, 2], "dtype": "int32"}, {"name": "unknown_263", "shape": [1, 1, 512, 2048], "dtype": "float32"}, {"name": "unknown_264", "shape": [2048], "dtype": "float32"}, {"name": "unknown_272", "shape": [256], "dtype": "float32"}, {"name": "unknown_284", "shape": [128], "dtype": "float32"}, {"name": "unknown_296", "shape": [64], "dtype": "float32"}, {"name": "unknown_301", "shape": [3, 3, 64, 256], "dtype": "float32"}, {"name": "unknown_302", "shape": [256], "dtype": "float32"}, {"name": "unknown_303", "shape": [1, 1, 256, 90], "dtype": "float32"}, {"name": "unknown_304", "shape": [90], "dtype": "float32"}, {"name": "StatefulPartitionedCall/Less/y", "shape": [], "dtype": "float32"}, {"name": "StatefulPartitionedCall/Reshape_2/shape", "shape": [2], "dtype": "int32"}, {"name": "StatefulPartitionedCall/TopKV2/k", "shape": [], "dtype": "int32"}, {"name": "StatefulPartitionedCall/floordiv_2/y", "shape": [], "dtype": "int32"}, {"name": "StatefulPartitionedCall/mod/y", "shape": [], "dtype": "int32"}, {"name": "StatefulPartitionedCall/GatherV2/axis", "shape": [], "dtype": "int32"}, {"name": "ConstantFolding/StatefulPartitionedCall/truediv_5_recip", "shape": [], "dtype": "float32"}, {"name": "StatefulPartitionedCall/Scale/concat/axis", "shape": [], "dtype": "int32"}, {"name": "StatefulPartitionedCall/ToNormalizedCoordinates/Const", "shape": [2], "dtype": "int32"}, {"name": "StatefulPartitionedCall/ToNormalizedCoordinates/Greater/y", "shape": [], "dtype": "float32"}, {"name": "StatefulPartitionedCall/center_net_resnet_feature_extractor/functional_3/functional_1/conv5_block2_preact_bn/FusedBatchNormV3/Offset", "shape": [2048], "dtype": "float32"}, {"name": "StatefulPartitionedCall/center_net_resnet_feature_extractor/functional_3/functional_1/conv2_block1_1_conv/Conv2D_weights", "shape": [1, 1, 64, 64], "dtype": "float32"}, {"name": "StatefulPartitionedCall/center_net_resnet_feature_extractor/functional_3/functional_1/conv2_block1_1_conv/Conv2D_bn_offset", "shape": [64], "dtype": "float32"}, {"name": "StatefulPartitionedCall/center_net_resnet_feature_extractor/functional_3/functional_1/conv2_block1_2_conv/Conv2D_weights", "shape": [3, 3, 64, 64], "dtype": "float32"}, {"name": "StatefulPartitionedCall/center_net_resnet_feature_extractor/functional_3/functional_1/conv2_block1_2_conv/Conv2D_bn_offset", "shape": [64], "dtype": "float32"}, {"name": "StatefulPartitionedCall/center_net_resnet_feature_extractor/functional_3/functional_1/conv5_block1_preact_bn/FusedBatchNormV3/Scaled", "shape": [1024], "dtype": "float32"}, {"name": "StatefulPartitionedCall/center_net_resnet_feature_extractor/functional_3/functional_1/conv2_block2_1_conv/Conv2D_weights", "shape": [1, 1, 256, 64], "dtype": "float32"}, {"name": "StatefulPartitionedCall/center_net_resnet_feature_extractor/functional_3/functional_1/conv2_block2_1_conv/Conv2D_bn_offset", "shape": [64], "dtype": "float32"}, {"name": "StatefulPartitionedCall/center_net_resnet_feature_extractor/functional_3/functional_1/conv5_block1_preact_bn/FusedBatchNormV3/Offset", "shape": [1024], "dtype": "float32"}, {"name": "StatefulPartitionedCall/center_net_resnet_feature_extractor/functional_3/functional_1/conv2_block2_2_conv/Conv2D_weights", "shape": [3, 3, 64, 64], "dtype": "float32"}, {"name": "StatefulPartitionedCall/center_net_resnet_feature_extractor/functional_3/functional_1/conv2_block2_2_conv/Conv2D_bn_offset", "shape": [64], "dtype": "float32"}, {"name": "StatefulPartitionedCall/center_net_resnet_feature_extractor/functional_3/functional_1/conv2_block3_1_conv/Conv2D_weights", "shape": [1, 1, 256, 64], "dtype": "float32"}, {"name": "StatefulPartitionedCall/center_net_resnet_feature_extractor/functional_3/functional_1/conv4_block6_preact_bn/FusedBatchNormV3/Scaled", "shape": [1024], "dtype": "float32"}, {"name": "StatefulPartitionedCall/center_net_resnet_feature_extractor/functional_3/functional_1/conv2_block3_1_conv/Conv2D_bn_offset", "shape": [64], "dtype": "float32"}, {"name": "StatefulPartitionedCall/center_net_resnet_feature_extractor/functional_3/functional_1/conv2_block3_2_conv/Conv2D_weights", "shape": [3, 3, 64, 64], "dtype": "float32"}, {"name": "StatefulPartitionedCall/center_net_resnet_feature_extractor/functional_3/functional_1/conv2_block3_2_conv/Conv2D_bn_offset", "shape": [64], "dtype": "float32"}, {"name": "StatefulPartitionedCall/center_net_resnet_feature_extractor/functional_3/functional_1/conv4_block6_preact_bn/FusedBatchNormV3/Offset", "shape": [1024], "dtype": "float32"}, {"name": "StatefulPartitionedCall/center_net_resnet_feature_extractor/functional_3/functional_1/conv3_block1_1_conv/Conv2D_weights", "shape": [1, 1, 256, 128], "dtype": "float32"}, {"name": "StatefulPartitionedCall/center_net_resnet_feature_extractor/functional_3/functional_1/conv3_block1_1_conv/Conv2D_bn_offset", "shape": [128], "dtype": "float32"}, {"name": "StatefulPartitionedCall/center_net_resnet_feature_extractor/functional_3/functional_1/conv4_block5_preact_bn/FusedBatchNormV3/Scaled", "shape": [1024], "dtype": "float32"}, {"name": "StatefulPartitionedCall/center_net_resnet_feature_extractor/functional_3/functional_1/conv3_block1_2_conv/Conv2D_weights", "shape": [3, 3, 128, 128], "dtype": "float32"}, {"name": "StatefulPartitionedCall/center_net_resnet_feature_extractor/functional_3/functional_1/conv3_block1_2_conv/Conv2D_bn_offset", "shape": [128], "dtype": "float32"}, {"name": "StatefulPartitionedCall/center_net_resnet_feature_extractor/functional_3/functional_1/conv4_block5_preact_bn/FusedBatchNormV3/Offset", "shape": [1024], "dtype": "float32"}, {"name": "StatefulPartitionedCall/center_net_resnet_feature_extractor/functional_3/functional_1/conv3_block2_1_conv/Conv2D_weights", "shape": [1, 1, 512, 128], "dtype": "float32"}, {"name": "StatefulPartitionedCall/center_net_resnet_feature_extractor/functional_3/functional_1/conv3_block2_1_conv/Conv2D_bn_offset", "shape": [128], "dtype": "float32"}, {"name": "StatefulPartitionedCall/center_net_resnet_feature_extractor/functional_3/functional_1/conv3_block2_2_conv/Conv2D_weights", "shape": [3, 3, 128, 128], "dtype": "float32"}, {"name": "StatefulPartitionedCall/center_net_resnet_feature_extractor/functional_3/functional_1/conv3_block2_2_conv/Conv2D_bn_offset", "shape": [128], "dtype": "float32"}, {"name": "StatefulPartitionedCall/center_net_resnet_feature_extractor/functional_3/functional_1/conv4_block4_preact_bn/FusedBatchNormV3/Scaled", "shape": [1024], "dtype": "float32"}, {"name": "StatefulPartitionedCall/center_net_resnet_feature_extractor/functional_3/functional_1/conv3_block3_1_conv/Conv2D_weights", "shape": [1, 1, 512, 128], "dtype": "float32"}, {"name": "StatefulPartitionedCall/center_net_resnet_feature_extractor/functional_3/functional_1/conv3_block3_1_conv/Conv2D_bn_offset", "shape": [128], "dtype": "float32"}, {"name": "StatefulPartitionedCall/center_net_resnet_feature_extractor/functional_3/functional_1/conv4_block4_preact_bn/FusedBatchNormV3/Offset", "shape": [1024], "dtype": "float32"}, {"name": "StatefulPartitionedCall/center_net_resnet_feature_extractor/functional_3/functional_1/conv3_block3_2_conv/Conv2D_weights", "shape": [3, 3, 128, 128], "dtype": "float32"}, {"name": "StatefulPartitionedCall/center_net_resnet_feature_extractor/functional_3/functional_1/conv3_block3_2_conv/Conv2D_bn_offset", "shape": [128], "dtype": "float32"}, {"name": "StatefulPartitionedCall/center_net_resnet_feature_extractor/functional_3/functional_1/conv3_block4_1_conv/Conv2D_weights", "shape": [1, 1, 512, 128], "dtype": "float32"}, {"name": "StatefulPartitionedCall/center_net_resnet_feature_extractor/functional_3/functional_1/conv4_block3_preact_bn/FusedBatchNormV3/Scaled", "shape": [1024], "dtype": "float32"}, {"name": "StatefulPartitionedCall/center_net_resnet_feature_extractor/functional_3/functional_1/conv3_block4_1_conv/Conv2D_bn_offset", "shape": [128], "dtype": "float32"}, {"name": "StatefulPartitionedCall/center_net_resnet_feature_extractor/functional_3/functional_1/conv3_block4_2_conv/Conv2D_weights", "shape": [3, 3, 128, 128], "dtype": "float32"}, {"name": "StatefulPartitionedCall/center_net_resnet_feature_extractor/functional_3/functional_1/conv3_block4_2_conv/Conv2D_bn_offset", "shape": [128], "dtype": "float32"}, {"name": "StatefulPartitionedCall/center_net_resnet_feature_extractor/functional_3/functional_1/conv4_block3_preact_bn/FusedBatchNormV3/Offset", "shape": [1024], "dtype": "float32"}, {"name": "StatefulPartitionedCall/center_net_resnet_feature_extractor/functional_3/functional_1/conv4_block1_1_conv/Conv2D_weights", "shape": [1, 1, 512, 256], "dtype": "float32"}, {"name": "StatefulPartitionedCall/center_net_resnet_feature_extractor/functional_3/functional_1/conv4_block1_1_conv/Conv2D_bn_offset", "shape": [256], "dtype": "float32"}, {"name": "StatefulPartitionedCall/center_net_resnet_feature_extractor/functional_3/functional_1/conv4_block2_preact_bn/FusedBatchNormV3/Scaled", "shape": [1024], "dtype": "float32"}, {"name": "StatefulPartitionedCall/center_net_resnet_feature_extractor/functional_3/functional_1/conv4_block1_2_conv/Conv2D_weights", "shape": [3, 3, 256, 256], "dtype": "float32"}, {"name": "StatefulPartitionedCall/center_net_resnet_feature_extractor/functional_3/functional_1/conv4_block1_2_conv/Conv2D_bn_offset", "shape": [256], "dtype": "float32"}, {"name": "StatefulPartitionedCall/center_net_resnet_feature_extractor/functional_3/functional_1/conv4_block2_preact_bn/FusedBatchNormV3/Offset", "shape": [1024], "dtype": "float32"}, {"name": "StatefulPartitionedCall/center_net_resnet_feature_extractor/functional_3/functional_1/conv4_block2_1_conv/Conv2D_weights", "shape": [1, 1, 1024, 256], "dtype": "float32"}, {"name": "StatefulPartitionedCall/center_net_resnet_feature_extractor/functional_3/functional_1/conv4_block2_1_conv/Conv2D_bn_offset", "shape": [256], "dtype": "float32"}, {"name": "StatefulPartitionedCall/center_net_resnet_feature_extractor/functional_3/functional_1/conv4_block2_2_conv/Conv2D_weights", "shape": [3, 3, 256, 256], "dtype": "float32"}, {"name": "StatefulPartitionedCall/center_net_resnet_feature_extractor/functional_3/functional_1/conv4_block2_2_conv/Conv2D_bn_offset", "shape": [256], "dtype": "float32"}, {"name": "StatefulPartitionedCall/center_net_resnet_feature_extractor/functional_3/functional_1/conv4_block1_preact_bn/FusedBatchNormV3/Scaled", "shape": [512], "dtype": "float32"}, {"name": "StatefulPartitionedCall/center_net_resnet_feature_extractor/functional_3/functional_1/conv4_block3_1_conv/Conv2D_weights", "shape": [1, 1, 1024, 256], "dtype": "float32"}, {"name": "StatefulPartitionedCall/center_net_resnet_feature_extractor/functional_3/functional_1/conv4_block3_1_conv/Conv2D_bn_offset", "shape": [256], "dtype": "float32"}, {"name": "StatefulPartitionedCall/center_net_resnet_feature_extractor/functional_3/functional_1/conv4_block1_preact_bn/FusedBatchNormV3/Offset", "shape": [512], "dtype": "float32"}, {"name": "StatefulPartitionedCall/center_net_resnet_feature_extractor/functional_3/functional_1/conv4_block3_2_conv/Conv2D_weights", "shape": [3, 3, 256, 256], "dtype": "float32"}, {"name": "StatefulPartitionedCall/center_net_resnet_feature_extractor/functional_3/functional_1/conv4_block3_2_conv/Conv2D_bn_offset", "shape": [256], "dtype": "float32"}, {"name": "StatefulPartitionedCall/center_net_resnet_feature_extractor/functional_3/functional_1/conv4_block4_1_conv/Conv2D_weights", "shape": [1, 1, 1024, 256], "dtype": "float32"}, {"name": "StatefulPartitionedCall/center_net_resnet_feature_extractor/functional_3/functional_1/conv3_block4_preact_bn/FusedBatchNormV3/Scaled", "shape": [512], "dtype": "float32"}, {"name": "StatefulPartitionedCall/center_net_resnet_feature_extractor/functional_3/functional_1/conv4_block4_1_conv/Conv2D_bn_offset", "shape": [256], "dtype": "float32"}, {"name": "StatefulPartitionedCall/center_net_resnet_feature_extractor/functional_3/functional_1/conv4_block4_2_conv/Conv2D_weights", "shape": [3, 3, 256, 256], "dtype": "float32"}, {"name": "StatefulPartitionedCall/center_net_resnet_feature_extractor/functional_3/functional_1/conv4_block4_2_conv/Conv2D_bn_offset", "shape": [256], "dtype": "float32"}, {"name": "StatefulPartitionedCall/center_net_resnet_feature_extractor/functional_3/functional_1/conv3_block4_preact_bn/FusedBatchNormV3/Offset", "shape": [512], "dtype": "float32"}, {"name": "StatefulPartitionedCall/center_net_resnet_feature_extractor/functional_3/functional_1/conv4_block5_1_conv/Conv2D_weights", "shape": [1, 1, 1024, 256], "dtype": "float32"}, {"name": "StatefulPartitionedCall/center_net_resnet_feature_extractor/functional_3/functional_1/conv4_block5_1_conv/Conv2D_bn_offset", "shape": [256], "dtype": "float32"}, {"name": "StatefulPartitionedCall/center_net_resnet_feature_extractor/functional_3/functional_1/conv4_block5_2_conv/Conv2D_weights", "shape": [3, 3, 256, 256], "dtype": "float32"}, {"name": "StatefulPartitionedCall/center_net_resnet_feature_extractor/functional_3/functional_1/conv3_block3_preact_bn/FusedBatchNormV3/Scaled", "shape": [512], "dtype": "float32"}, {"name": "StatefulPartitionedCall/center_net_resnet_feature_extractor/functional_3/functional_1/conv4_block5_2_conv/Conv2D_bn_offset", "shape": [256], "dtype": "float32"}, {"name": "StatefulPartitionedCall/center_net_resnet_feature_extractor/functional_3/functional_1/conv4_block6_1_conv/Conv2D_weights", "shape": [1, 1, 1024, 256], "dtype": "float32"}, {"name": "StatefulPartitionedCall/center_net_resnet_feature_extractor/functional_3/functional_1/conv3_block3_preact_bn/FusedBatchNormV3/Offset", "shape": [512], "dtype": "float32"}, {"name": "StatefulPartitionedCall/center_net_resnet_feature_extractor/functional_3/functional_1/conv4_block6_1_conv/Conv2D_bn_offset", "shape": [256], "dtype": "float32"}, {"name": "StatefulPartitionedCall/center_net_resnet_feature_extractor/functional_3/functional_1/conv4_block6_2_conv/Conv2D_weights", "shape": [3, 3, 256, 256], "dtype": "float32"}, {"name": "StatefulPartitionedCall/center_net_resnet_feature_extractor/functional_3/functional_1/conv4_block6_2_conv/Conv2D_bn_offset", "shape": [256], "dtype": "float32"}, {"name": "StatefulPartitionedCall/center_net_resnet_feature_extractor/functional_3/functional_1/conv3_block2_preact_bn/FusedBatchNormV3/Scaled", "shape": [512], "dtype": "float32"}, {"name": "StatefulPartitionedCall/center_net_resnet_feature_extractor/functional_3/functional_1/conv5_block1_1_conv/Conv2D_weights", "shape": [1, 1, 1024, 512], "dtype": "float32"}, {"name": "StatefulPartitionedCall/center_net_resnet_feature_extractor/functional_3/functional_1/conv5_block1_1_conv/Conv2D_bn_offset", "shape": [512], "dtype": "float32"}, {"name": "StatefulPartitionedCall/center_net_resnet_feature_extractor/functional_3/functional_1/conv3_block2_preact_bn/FusedBatchNormV3/Offset", "shape": [512], "dtype": "float32"}, {"name": "StatefulPartitionedCall/center_net_resnet_feature_extractor/functional_3/functional_1/conv5_block1_2_conv/Conv2D_weights", "shape": [3, 3, 512, 512], "dtype": "float32"}, {"name": "StatefulPartitionedCall/center_net_resnet_feature_extractor/functional_3/functional_1/conv5_block1_2_conv/Conv2D_bn_offset", "shape": [512], "dtype": "float32"}, {"name": "StatefulPartitionedCall/center_net_resnet_feature_extractor/functional_3/functional_1/conv5_block2_1_conv/Conv2D_weights", "shape": [1, 1, 2048, 512], "dtype": "float32"}, {"name": "StatefulPartitionedCall/center_net_resnet_feature_extractor/functional_3/functional_1/conv3_block1_preact_bn/FusedBatchNormV3/Scaled", "shape": [256], "dtype": "float32"}, {"name": "StatefulPartitionedCall/center_net_resnet_feature_extractor/functional_3/functional_1/conv5_block2_1_conv/Conv2D_bn_offset", "shape": [512], "dtype": "float32"}, {"name": "StatefulPartitionedCall/center_net_resnet_feature_extractor/functional_3/functional_1/conv5_block2_2_conv/Conv2D_weights", "shape": [3, 3, 512, 512], "dtype": "float32"}, {"name": "StatefulPartitionedCall/center_net_resnet_feature_extractor/functional_3/functional_1/conv5_block2_2_conv/Conv2D_bn_offset", "shape": [512], "dtype": "float32"}, {"name": "StatefulPartitionedCall/center_net_resnet_feature_extractor/functional_3/functional_1/conv3_block1_preact_bn/FusedBatchNormV3/Offset", "shape": [256], "dtype": "float32"}, {"name": "StatefulPartitionedCall/center_net_resnet_feature_extractor/functional_3/functional_1/conv5_block3_1_conv/Conv2D_weights", "shape": [1, 1, 2048, 512], "dtype": "float32"}, {"name": "StatefulPartitionedCall/center_net_resnet_feature_extractor/functional_3/functional_1/conv5_block3_1_conv/Conv2D_bn_offset", "shape": [512], "dtype": "float32"}, {"name": "StatefulPartitionedCall/center_net_resnet_feature_extractor/functional_3/functional_1/conv5_block3_2_conv/Conv2D_weights", "shape": [3, 3, 512, 512], "dtype": "float32"}, {"name": "StatefulPartitionedCall/center_net_resnet_feature_extractor/functional_3/functional_1/conv2_block3_preact_bn/FusedBatchNormV3/Scaled", "shape": [256], "dtype": "float32"}, {"name": "StatefulPartitionedCall/center_net_resnet_feature_extractor/functional_3/functional_1/conv5_block3_2_conv/Conv2D_bn_offset", "shape": [512], "dtype": "float32"}, {"name": "StatefulPartitionedCall/center_net_resnet_feature_extractor/functional_3/conv2d/Conv2D_weights", "shape": [3, 3, 2048, 256], "dtype": "float32"}, {"name": "StatefulPartitionedCall/center_net_resnet_feature_extractor/functional_3/functional_1/conv2_block3_preact_bn/FusedBatchNormV3/Offset", "shape": [256], "dtype": "float32"}, {"name": "StatefulPartitionedCall/center_net_resnet_feature_extractor/functional_3/conv2d/Conv2D_bn_offset", "shape": [256], "dtype": "float32"}, {"name": "StatefulPartitionedCall/center_net_resnet_feature_extractor/functional_3/conv2d_1/Conv2D_weights", "shape": [3, 3, 256, 128], "dtype": "float32"}, {"name": "StatefulPartitionedCall/center_net_resnet_feature_extractor/functional_3/conv2d_1/Conv2D_bn_offset", "shape": [128], "dtype": "float32"}, {"name": "StatefulPartitionedCall/center_net_resnet_feature_extractor/functional_3/conv2d_2/Conv2D_weights", "shape": [3, 3, 128, 64], "dtype": "float32"}, {"name": "StatefulPartitionedCall/center_net_resnet_feature_extractor/functional_3/functional_1/conv2_block2_preact_bn/FusedBatchNormV3/Scaled", "shape": [256], "dtype": "float32"}, {"name": "StatefulPartitionedCall/center_net_resnet_feature_extractor/functional_3/conv2d_2/Conv2D_bn_offset", "shape": [64], "dtype": "float32"}, {"name": "StatefulPartitionedCall/center_net_resnet_feature_extractor/functional_3/functional_1/conv2_block2_preact_bn/FusedBatchNormV3/Offset", "shape": [256], "dtype": "float32"}, {"name": "StatefulPartitionedCall/center_net_resnet_feature_extractor/functional_3/functional_1/conv2_block1_preact_bn/FusedBatchNormV3/Scaled", "shape": [64], "dtype": "float32"}, {"name": "StatefulPartitionedCall/center_net_resnet_feature_extractor/functional_3/functional_1/conv2_block1_preact_bn/FusedBatchNormV3/Offset", "shape": [64], "dtype": "float32"}, {"name": "StatefulPartitionedCall/center_net_resnet_feature_extractor/functional_3/batch_normalization_5/FusedBatchNormV3/Scaled", "shape": [64], "dtype": "float32"}, {"name": "StatefulPartitionedCall/center_net_resnet_feature_extractor/functional_3/batch_normalization_5/FusedBatchNormV3/Offset", "shape": [64], "dtype": "float32"}, {"name": "StatefulPartitionedCall/center_net_resnet_feature_extractor/functional_3/batch_normalization_3/FusedBatchNormV3/Scaled", "shape": [128], "dtype": "float32"}, {"name": "StatefulPartitionedCall/center_net_resnet_feature_extractor/functional_3/batch_normalization_3/FusedBatchNormV3/Offset", "shape": [128], "dtype": "float32"}, {"name": "StatefulPartitionedCall/center_net_resnet_feature_extractor/functional_3/batch_normalization_1/FusedBatchNormV3/Scaled", "shape": [256], "dtype": "float32"}, {"name": "StatefulPartitionedCall/center_net_resnet_feature_extractor/functional_3/batch_normalization_1/FusedBatchNormV3/Offset", "shape": [256], "dtype": "float32"}, {"name": "StatefulPartitionedCall/center_net_resnet_feature_extractor/functional_3/functional_1/conv5_block3_preact_bn/FusedBatchNormV3/Scaled", "shape": [2048], "dtype": "float32"}, {"name": "StatefulPartitionedCall/center_net_resnet_feature_extractor/functional_3/functional_1/conv5_block3_preact_bn/FusedBatchNormV3/Offset", "shape": [2048], "dtype": "float32"}, {"name": "StatefulPartitionedCall/center_net_resnet_feature_extractor/functional_3/functional_1/conv5_block2_preact_bn/FusedBatchNormV3/Scaled", "shape": [2048], "dtype": "float32"}, {"name": "StatefulPartitionedCall/ResizeToRange/cond/else/_321/ResizeToRange/cond/resize/Cast", "shape": [], "dtype": "float32"}, {"name": "StatefulPartitionedCall/ResizeToRange/cond/else/_321/ResizeToRange/cond/resize/Cast_2", "shape": [], "dtype": "float32"}, {"name": "StatefulPartitionedCall/ResizeToRange/cond/else/_321/ResizeToRange/cond/resize/ExpandDims/dim", "shape": [], "dtype": "int32"}, {"name": "StatefulPartitionedCall/ResizeToRange/cond/then/_320/ResizeToRange/cond/resize/Cast", "shape": [], "dtype": "float32"}, {"name": "StatefulPartitionedCall/ResizeToRange/cond/then/_320/ResizeToRange/cond/resize/Cast_2", "shape": [], "dtype": "float32"}, {"name": "StatefulPartitionedCall/ResizeToRange/cond/then/_320/ResizeToRange/cond/resize/ExpandDims/dim", "shape": [], "dtype": "int32"}, {"name": "ConstantFolding/StatefulPartitionedCall/stack_1_const_axis", "shape": [], "dtype": "int32"}, {"name": "ConstantFolding/StatefulPartitionedCall/stack_const_axis", "shape": [], "dtype": "int32"}, {"name": "StatefulPartitionedCall/Assert_1/AssertGuard/pivot_t/_341", "shape": [], "dtype": "bool"}, {"name": "StatefulPartitionedCall/Assert_2/AssertGuard/pivot_t/_350", "shape": [], "dtype": "bool"}, {"name": "StatefulPartitionedCall/Assert_3/AssertGuard/pivot_t/_359", "shape": [], "dtype": "bool"}, {"name": "StatefulPartitionedCall/ToNormalizedCoordinates/Assert/AssertGuard/pivot_f/_367", "shape": [], "dtype": "bool"}, {"name": "StatefulPartitionedCall/ToNormalizedCoordinates/Assert/AssertGuard/pivot_t/_368", "shape": [], "dtype": "bool"}, {"name": "Func/StatefulPartitionedCall/ToNormalizedCoordinates/Assert/AssertGuard/then/_364/output/_424", "shape": [], "dtype": "bool"}, {"name": "Func/StatefulPartitionedCall/ToNormalizedCoordinates/Assert/AssertGuard/else/_365/output/_429", "shape": [], "dtype": "bool"}, {"name": "ConstantFolding/StatefulPartitionedCall/stack_3_const_axis", "shape": [], "dtype": "int32"}]}]}